…
'[19.0, 36.0]', '[40.0, 28.0]', '[36.0, 75.0]', '[76.0, 55.0]', '[72.0, 146.0]', '[142.0, 110.0]', '[192.0, 243.0]', '[459.0, 401.0]']}
InputSpec(shape=(None, 512, 512, 3), ndim=4)
<tensorflow.python.keras.regularizers.L2 object at 0x7fc0d06e6fa0>
Model: "cspdarknet53"
__________________________________________________________________________________________________
Layer (type)                    Output Shape         Param #     Connected to                     
==================================================================================================
input_1 (InputLayer)            [(None, 512, 512, 3) 0                                            
__________________________________________________________________________________________________
ConvBN_0_0 (ConvBN)             (None, 512, 512, 32) 1058        input_1[0][0]                    
__________________________________________________________________________________________________
DarkRes_1_csp_down (CSPRoute)   ((None, 256, 256, 64 27782       ConvBN_0_0[0][0]                 
__________________________________________________________________________________________________
DarkRes_1_0 (DarkResidual)      (None, 256, 256, 64) 21060       DarkRes_1_csp_down[0][0]         
__________________________________________________________________________________________________
DarkRes_1_csp_connect (CSPConne (None, 256, 256, 64) 13060       DarkRes_1_0[0][0]                
                                                                 DarkRes_1_csp_down[0][1]         
__________________________________________________________________________________________________
DarkRes_2_csp_down (CSPRoute)   ((None, 128, 128, 64 91654       DarkRes_1_csp_connect[0][0]      
__________________________________________________________________________________________________
DarkRes_2_0 (DarkResidual)      (None, 128, 128, 64) 41732       DarkRes_2_csp_down[0][0]         
__________________________________________________________________________________________________
DarkRes_2_1 (DarkResidual)      (None, 128, 128, 64) 41732       DarkRes_2_0[0][0]                
__________________________________________________________________________________________________
DarkRes_2_csp_connect (CSPConne (None, 128, 128, 128 21636       DarkRes_2_1[0][0]                
                                                                 DarkRes_2_csp_down[0][1]         
__________________________________________________________________________________________________
DarkRes_3_csp_down (CSPRoute)   ((None, 64, 64, 128) 363526      DarkRes_2_csp_connect[0][0]      
__________________________________________________________________________________________________
DarkRes_3_0 (DarkResidual)      (None, 64, 64, 128)  165380      DarkRes_3_csp_down[0][0]         
__________________________________________________________________________________________________
DarkRes_3_1 (DarkResidual)      (None, 64, 64, 128)  165380      DarkRes_3_0[0][0]                
__________________________________________________________________________________________________
DarkRes_3_2 (DarkResidual)      (None, 64, 64, 128)  165380      DarkRes_3_1[0][0]                
__________________________________________________________________________________________________
DarkRes_3_3 (DarkResidual)      (None, 64, 64, 128)  165380      DarkRes_3_2[0][0]                
__________________________________________________________________________________________________
DarkRes_3_4 (DarkResidual)      (None, 64, 64, 128)  165380      DarkRes_3_3[0][0]                
__________________________________________________________________________________________________
DarkRes_3_5 (DarkResidual)      (None, 64, 64, 128)  165380      DarkRes_3_4[0][0]                
__________________________________________________________________________________________________
DarkRes_3_6 (DarkResidual)      (None, 64, 64, 128)  165380      DarkRes_3_5[0][0]                
__________________________________________________________________________________________________
DarkRes_3_7 (DarkResidual)      (None, 64, 64, 128)  165380      DarkRes_3_6[0][0]                
__________________________________________________________________________________________________
DarkRes_3_csp_connect (CSPConne (None, 64, 64, 256)  84228       DarkRes_3_7[0][0]                
                                                                 DarkRes_3_csp_down[0][1]         
__________________________________________________________________________________________________
DarkRes_4_csp_down (CSPRoute)   ((None, 32, 32, 256) 1447942     DarkRes_3_csp_connect[0][0]      
__________________________________________________________________________________________________
DarkRes_4_0 (DarkResidual)      (None, 32, 32, 256)  658436      DarkRes_4_csp_down[0][0]         
__________________________________________________________________________________________________
DarkRes_4_1 (DarkResidual)      (None, 32, 32, 256)  658436      DarkRes_4_0[0][0]                
__________________________________________________________________________________________________
DarkRes_4_2 (DarkResidual)      (None, 32, 32, 256)  658436      DarkRes_4_1[0][0]                
__________________________________________________________________________________________________
DarkRes_4_3 (DarkResidual)      (None, 32, 32, 256)  658436      DarkRes_4_2[0][0]                
__________________________________________________________________________________________________
DarkRes_4_4 (DarkResidual)      (None, 32, 32, 256)  658436      DarkRes_4_3[0][0]                
__________________________________________________________________________________________________
DarkRes_4_5 (DarkResidual)      (None, 32, 32, 256)  658436      DarkRes_4_4[0][0]                
__________________________________________________________________________________________________
DarkRes_4_6 (DarkResidual)      (None, 32, 32, 256)  658436      DarkRes_4_5[0][0]                
__________________________________________________________________________________________________
DarkRes_4_7 (DarkResidual)      (None, 32, 32, 256)  658436      DarkRes_4_6[0][0]                
__________________________________________________________________________________________________
DarkRes_4_csp_connect (CSPConne (None, 32, 32, 512)  332292      DarkRes_4_7[0][0]                
                                                                 DarkRes_4_csp_down[0][1]         
__________________________________________________________________________________________________
DarkRes_5_csp_down (CSPRoute)   ((None, 16, 16, 512) 5779462     DarkRes_4_csp_connect[0][0]      
__________________________________________________________________________________________________
DarkRes_5_0 (DarkResidual)      (None, 16, 16, 512)  2627588     DarkRes_5_csp_down[0][0]         
__________________________________________________________________________________________________
DarkRes_5_1 (DarkResidual)      (None, 16, 16, 512)  2627588     DarkRes_5_0[0][0]                
__________________________________________________________________________________________________
DarkRes_5_2 (DarkResidual)      (None, 16, 16, 512)  2627588     DarkRes_5_1[0][0]                
__________________________________________________________________________________________________
DarkRes_5_3 (DarkResidual)      (None, 16, 16, 512)  2627588     DarkRes_5_2[0][0]                WARNING:tensorflow:tf.keras.mixed_precision.experimental.LossScaleOptimizer is deprecated. Please use tf.keras.mixed_precision.LossScaleOptimizer instead. For example
  opt = tf.keras.mixed_precision.experimental.LossScaleOptimizer(opt)
W0227 10:47:20.746903 140472060528448 loss_scale_optimizer.py:1039] tf.keras.mixed_precision.experimental.LossScaleOptimizer is deprecated. Please use tf.keras.mixed_precision.LossScaleOptimizer instead. For example
…
'[19.0, 36.0]', '[40.0, 28.0]', '[36.0, 75.0]', '[76.0, 55.0]', '[72.0, 146.0]', '[142.0, 110.0]', '[192.0, 243.0]', '[459.0, 401.0]']}
InputSpec(shape=(None, 512, 512, 3), ndim=4)
<tensorflow.python.keras.regularizers.L2 object at 0x7f6bfacdd880>
Model: "cspdarknet53"
__________________________________________________________________________________________________
Layer (type)                    Output Shape         Param #     Connected to                     
==================================================================================================
input_1 (InputLayer)            [(None, 512, 512, 3) 0                                            
__________________________________________________________________________________________________
ConvBN_0_0 (ConvBN)             (None, 512, 512, 32) 1058        input_1[0][0]                    
__________________________________________________________________________________________________
DarkRes_1_csp_down (CSPRoute)   ((None, 256, 256, 64 27782       ConvBN_0_0[0][0]                 
__________________________________________________________________________________________________
DarkRes_1_0 (DarkResidual)      (None, 256, 256, 64) 21060       DarkRes_1_csp_down[0][0]         
__________________________________________________________________________________________________
DarkRes_1_csp_connect (CSPConne (None, 256, 256, 64) 13060       DarkRes_1_0[0][0]                
                                                                 DarkRes_1_csp_down[0][1]         
__________________________________________________________________________________________________
DarkRes_2_csp_down (CSPRoute)   ((None, 128, 128, 64 91654       DarkRes_1_csp_connect[0][0]      
__________________________________________________________________________________________________
DarkRes_2_0 (DarkResidual)      (None, 128, 128, 64) 41732       DarkRes_2_csp_down[0][0]         
__________________________________________________________________________________________________
DarkRes_2_1 (DarkResidual)      (None, 128, 128, 64) 41732       DarkRes_2_0[0][0]                
__________________________________________________________________________________________________
DarkRes_2_csp_connect (CSPConne (None, 128, 128, 128 21636       DarkRes_2_1[0][0]                
                                                                 DarkRes_2_csp_down[0][1]         
__________________________________________________________________________________________________
DarkRes_3_csp_down (CSPRoute)   ((None, 64, 64, 128) 363526      DarkRes_2_csp_connect[0][0]      
__________________________________________________________________________________________________
DarkRes_3_0 (DarkResidual)      (None, 64, 64, 128)  165380      DarkRes_3_csp_down[0][0]         
__________________________________________________________________________________________________
DarkRes_3_1 (DarkResidual)      (None, 64, 64, 128)  165380      DarkRes_3_0[0][0]                
__________________________________________________________________________________________________
DarkRes_3_2 (DarkResidual)      (None, 64, 64, 128)  165380      DarkRes_3_1[0][0]                
__________________________________________________________________________________________________
DarkRes_3_3 (DarkResidual)      (None, 64, 64, 128)  165380      DarkRes_3_2[0][0]                
__________________________________________________________________________________________________
DarkRes_3_4 (DarkResidual)      (None, 64, 64, 128)  165380      DarkRes_3_3[0][0]                
__________________________________________________________________________________________________
DarkRes_3_5 (DarkResidual)      (None, 64, 64, 128)  165380      DarkRes_3_4[0][0]                
__________________________________________________________________________________________________
DarkRes_3_6 (DarkResidual)      (None, 64, 64, 128)  165380      DarkRes_3_5[0][0]                
__________________________________________________________________________________________________
DarkRes_3_7 (DarkResidual)      (None, 64, 64, 128)  165380      DarkRes_3_6[0][0]                
__________________________________________________________________________________________________
DarkRes_3_csp_connect (CSPConne (None, 64, 64, 256)  84228       DarkRes_3_7[0][0]                
                                                                 DarkRes_3_csp_down[0][1]         
__________________________________________________________________________________________________
DarkRes_4_csp_down (CSPRoute)   ((None, 32, 32, 256) 1447942     DarkRes_3_csp_connect[0][0]      
__________________________________________________________________________________________________
DarkRes_4_0 (DarkResidual)      (None, 32, 32, 256)  658436      DarkRes_4_csp_down[0][0]         
__________________________________________________________________________________________________
DarkRes_4_1 (DarkResidual)      (None, 32, 32, 256)  658436      DarkRes_4_0[0][0]                
__________________________________________________________________________________________________
DarkRes_4_2 (DarkResidual)      (None, 32, 32, 256)  658436      DarkRes_4_1[0][0]                
__________________________________________________________________________________________________
DarkRes_4_3 (DarkResidual)      (None, 32, 32, 256)  658436      DarkRes_4_2[0][0]                
__________________________________________________________________________________________________
DarkRes_4_4 (DarkResidual)      (None, 32, 32, 256)  658436      DarkRes_4_3[0][0]                
__________________________________________________________________________________________________
DarkRes_4_5 (DarkResidual)      (None, 32, 32, 256)  658436      DarkRes_4_4[0][0]                
__________________________________________________________________________________________________
DarkRes_4_6 (DarkResidual)      (None, 32, 32, 256)  658436      DarkRes_4_5[0][0]                
__________________________________________________________________________________________________
DarkRes_4_7 (DarkResidual)      (None, 32, 32, 256)  658436      DarkRes_4_6[0][0]                
__________________________________________________________________________________________________
DarkRes_4_csp_connect (CSPConne (None, 32, 32, 512)  332292      DarkRes_4_7[0][0]                
                                                                 DarkRes_4_csp_down[0][1]         
__________________________________________________________________________________________________
DarkRes_5_csp_down (CSPRoute)   ((None, 16, 16, 512) 5779462     DarkRes_4_csp_connect[0][0]      
__________________________________________________________________________________________________
DarkRes_5_0 (DarkResidual)      (None, 16, 16, 512)  2627588     DarkRes_5_csp_down[0][0]         
__________________________________________________________________________________________________
DarkRes_5_1 (DarkResidual)      (None, 16, 16, 512)  2627588     DarkRes_5_0[0][0]                
__________________________________________________________________________________________________
DarkRes_5_2 (DarkResidual)      (None, 16, 16, 512)  2627588     DarkRes_5_1[0][0]                
__________________________________________________________________________________________________
DarkRes_5_3 (DarkResidual)      (None, 16, 16, 512)  2627588     DarkRes_5_2[0][0]                
__________________________________________________________________________________________________
DarkRes_5_csp_connect (CSPConne (None, 16, 16, 1024) 1319940     DarkRes_5_3[0][0]                
                                                                 DarkRes_5_csp_down[0][1]         
==================================================================================================
Total params: 26,687,984
Trainable params: 26,617,184
Non-trainable params: 70,800
__________________________________________________________________________________________________
…
8.0, 102.0]', '[119.0, 96.0]', '[97.0, 189.0]', '[217.0, 184.0]', '[171.0, 384.0]', '[324.0, 451.0]', '[616.0, 618.0]', '[800.0, 800.0]']}
InputSpec(shape=(None, 896, 896, 3), ndim=4)
<tensorflow.python.keras.regularizers.L2 object at 0x7f852c9f5790>
Model: "csp-large"
__________________________________________________________________________________________________
Layer (type)                    Output Shape         Param #     Connected to                     
==================================================================================================
input_1 (InputLayer)            [(None, 896, 896, 3) 0                                            
__________________________________________________________________________________________________
ConvBN_0_0 (ConvBN)             (None, 896, 896, 32) 1058        input_1[0][0]                    
__________________________________________________________________________________________________
DarkRes_1_residual_down (DarkRe (None, 448, 448, 64) 39878       ConvBN_0_0[0][0]                 
__________________________________________________________________________________________________
DarkRes_2_csp_down (CSPRoute)   ((None, 224, 224, 64 91654       DarkRes_1_residual_down[0][0]    
__________________________________________________________________________________________________
DarkRes_2_0 (DarkResidual)      (None, 224, 224, 64) 41732       DarkRes_2_csp_down[0][0]         
__________________________________________________________________________________________________
DarkRes_2_1 (DarkResidual)      (None, 224, 224, 64) 41732       DarkRes_2_0[0][0]                
__________________________________________________________________________________________________
DarkRes_2_2 (DarkResidual)      (None, 224, 224, 64) 41732       DarkRes_2_1[0][0]                
__________________________________________________________________________________________________
DarkRes_2_csp_connect (CSPConne (None, 224, 224, 128 21636       DarkRes_2_2[0][0]                
                                                                 DarkRes_2_csp_down[0][1]         
__________________________________________________________________________________________________
…
__________________________________________________________________________________________________
DarkRes_3_14 (DarkResidual)     (None, 112, 112, 128 165380      DarkRes_3_13[0][0]               
__________________________________________________________________________________________________
DarkRes_3_csp_connect (CSPConne (None, 112, 112, 256 84228       DarkRes_3_14[0][0]               
                                                                 DarkRes_3_csp_down[0][1]         
__________________________________________________________________________________________________
DarkRes_4_csp_down (CSPRoute)   ((None, 56, 56, 256) 1447942     DarkRes_3_csp_connect[0][0]      
__________________________________________________________________________________________________
DarkRes_4_0 (DarkResidual)      (None, 56, 56, 256)  658436      DarkRes_4_csp_down[0][0]         
__________________________________________________________________________________________________
DarkRes_4_1 (DarkResidual)      (None, 56, 56, 256)  658436      DarkRes_4_0[0][0]                
__________________________________________________________________________________________________
DarkRes_4_2 (DarkResidual)      (None, 56, 56, 256)  658436      DarkRes_4_1[0][0]                
__________________________________________________________________________________________________
DarkRes_4_3 (DarkResidual)      (None, 56, 56, 256)  658436      DarkRes_4_2[0][0]                
__________________________________________________________________________________________________
DarkRes_4_4 (DarkResidual)      (None, 56, 56, 256)  658436      DarkRes_4_3[0][0]                
__________________________________________________________________________________________________
DarkRes_4_5 (DarkResidual)      (None, 56, 56, 256)  658436      DarkRes_4_4[0][0]                
__________________________________________________________________________________________________
DarkRes_4_6 (DarkResidual)      (None, 56, 56, 256)  658436      DarkRes_4_5[0][0]                
__________________________________________________________________________________________________
DarkRes_4_7 (DarkResidual)      (None, 56, 56, 256)  658436      DarkRes_4_6[0][0]                
__________________________________________________________________________________________________
DarkRes_4_8 (DarkResidual)      (None, 56, 56, 256)  658436      DarkRes_4_7[0][0]                
__________________________________________________________________________________________________
DarkRes_4_9 (DarkResidual)      (None, 56, 56, 256)  658436      DarkRes_4_8[0][0]                
__________________________________________________________________________________________________
DarkRes_4_10 (DarkResidual)     (None, 56, 56, 256)  658436      DarkRes_4_9[0][0]                
__________________________________________________________________________________________________
DarkRes_4_11 (DarkResidual)     (None, 56, 56, 256)  658436      DarkRes_4_10[0][0]               
__________________________________________________________________________________________________
DarkRes_4_12 (DarkResidual)     (None, 56, 56, 256)  658436      DarkRes_4_11[0][0]               
__________________________________________________________________________________________________WARNING:tensorflow:tf.keras.mixed_precision.experimental.LossScaleOptimizer is deprecated. Please use tf.keras.mixed_precision.LossScaleOptimizer instead. For example
  opt = tf.keras.mixed_precision.experimental.LossScaleOptimizer(opt)
W0309 01:02:47.471006 140221617788736 loss_scale_optimizer.py:1039] tf.keras.mixed_precision.experimental.LossScaleOptimizer is deprecated. Please use tf.keras.mixed_precision.LossScaleOptimizer instead. For example
…
  File "/media/vbanna/DATA_SHARE/Research/TensorFlowModelGardeners/yolo/tasks/yolo.py", line 146, in build_inputs
    reader = input_reader.InputReader(
  File "/media/vbanna/DATA_SHARE/Research/TensorFlowModelGardeners/official/core/input_reader.py", line 78, in __init__
    raise ValueError('At most one of `input_path` and `tfds_name` can be '
ValueError: At most one of `input_path` and `tfds_name` can be specified, but got gs://tensorflow2/coco_records/train/2017* and coco.
  In call to configurable 'Trainer' (<class 'official.core.base_trainer.Trainer'>)
  In call to configurable 'create_trainer' (<function create_trainer at 0x7f879c6131f0>)

DarkRes_4_13 (DarkResidual)     (None, 56, 56, 256)  658436      DarkRes_4_12[0][0]               
__________________________________________________________________________________________________
DarkRes_4_14 (DarkResidual)     (None, 56, 56, 256)  658436      DarkRes_4_13[0][0]               
__________________________________________________________________________________________________
DarkRes_4_csp_connect (CSPConne (None, 56, 56, 512)  332292      DarkRes_4_14[0][0]               
                                                                 DarkRes_4_csp_down[0][1]         
__________________________________________________________________________________________________
DarkRes_5_csp_down (CSPRoute)   ((None, 28, 28, 512) 5779462     DarkRes_4_csp_connect[0][0]      
__________________________________________________________________________________________________
DarkRes_5_0 (DarkResidual)      (None, 28, 28, 512)  2627588     DarkRes_5_csp_down[0][0]         
__________________________________________________________________________________________________
DarkRes_5_1 (DarkResidual)      (None, 28, 28, 512)  2627588     DarkRes_5_0[0][0]                
__________________________________________________________________________________________________
DarkRes_5_2 (DarkResidual)      (None, 28, 28, 512)  2627588     DarkRes_5_1[0][0]                
__________________________________________________________________________________________________
DarkRes_5_3 (DarkResidual)      (None, 28, 28, 512)  2627588     DarkRes_5_2[0][0]                
__________________________________________________________________________________________________
DarkRes_5_4 (DarkResidual)      (None, 28, 28, 512)  2627588     DarkRes_5_3[0][0]                
__________________________________________________________________________________________________
DarkRes_5_5 (DarkResidual)      (None, 28, 28, 512)  2627588     DarkRes_5_4[0][0]                
__________________________________________________________________________________________________
DarkRes_5_6 (DarkResidual)      (None, 28, 28, 512)  2627588     DarkRes_5_5[0][0]                
__________________________________________________________________________________________________
DarkRes_5_csp_connect (CSPConne (None, 28, 28, 1024) 1319940     DarkRes_5_6[0][0]                
                                                                 DarkRes_5_csp_down[0][1]         
==================================================================================================
Total params: 40,357,168
Trainable params: 40,253,024
Non-trainable params: 104,144
__________________________________________________________________________________________________
…
