…
]', '[36.0, 75.0]', '[76.0, 55.0]', '[72.0, 146.0]', '[142.0, 110.0]', '[192.0, 243.0]', '[459.0, 401.0]'], 'smart_bias': True}
InputSpec(shape=(None, 640, 640, 3), ndim=4)
<tensorflow.python.keras.regularizers.L2 object at 0x7fa7da276510>
Model: "altered_cspdarknet53"
__________________________________________________________________________________________________
Layer (type)                    Output Shape         Param #     Connected to                     
==================================================================================================
input_1 (InputLayer)            [(None, 640, 640, 3) 0                                            
__________________________________________________________________________________________________
ConvBN_0_0 (ConvBN)             (None, 640, 640, 32) 992         input_1[0][0]                    
__________________________________________________________________________________________________
DarkRes_1_residual_down (DarkRe (None, 320, 320, 64) 39552       ConvBN_0_0[0][0]                 
__________________________________________________________________________________________________
DarkRes_2_csp_down (CSPRoute)   ((None, 160, 160, 64 91136       DarkRes_1_residual_down[0][0]    
__________________________________________________________________________________________________
DarkRes_2_0 (DarkResidual)      (None, 160, 160, 64) 41472       DarkRes_2_csp_down[0][0]         
__________________________________________________________________________________________________
DarkRes_2_1 (DarkResidual)      (None, 160, 160, 64) 41472       DarkRes_2_0[0][0]                
__________________________________________________________________________________________________
DarkRes_2_csp_connect (CSPConne (None, 160, 160, 128 21248       DarkRes_2_1[0][0]                
                                                                 DarkRes_2_csp_down[0][1]         
__________________________________________________________________________________________________
DarkRes_3_csp_down (CSPRoute)   ((None, 80, 80, 128) 362496      DarkRes_2_csp_connect[0][0]      
__________________________________________________________________________________________________
DarkRes_3_0 (DarkResidual)      (None, 80, 80, 128)  164864      DarkRes_3_csp_down[0][0]         
__________________________________________________________________________________________________
DarkRes_3_1 (DarkResidual)      (None, 80, 80, 128)  164864      DarkRes_3_0[0][0]                
__________________________________________________________________________________________________
DarkRes_3_2 (DarkResidual)      (None, 80, 80, 128)  164864      DarkRes_3_1[0][0]                
__________________________________________________________________________________________________
DarkRes_3_3 (DarkResidual)      (None, 80, 80, 128)  164864      DarkRes_3_2[0][0]                
__________________________________________________________________________________________________
DarkRes_3_4 (DarkResidual)      (None, 80, 80, 128)  164864      DarkRes_3_3[0][0]                
__________________________________________________________________________________________________
DarkRes_3_5 (DarkResidual)      (None, 80, 80, 128)  164864      DarkRes_3_4[0][0]                
__________________________________________________________________________________________________
DarkRes_3_6 (DarkResidual)      (None, 80, 80, 128)  164864      DarkRes_3_5[0][0]                
__________________________________________________________________________________________________
DarkRes_3_7 (DarkResidual)      (None, 80, 80, 128)  164864      DarkRes_3_6[0][0]                
__________________________________________________________________________________________________
DarkRes_3_csp_connect (CSPConne (None, 80, 80, 256)  83456       DarkRes_3_7[0][0]                
                                                                 DarkRes_3_csp_down[0][1]         
__________________________________________________________________________________________________
DarkRes_4_csp_down (CSPRoute)   ((None, 40, 40, 256) 1445888     DarkRes_3_csp_connect[0][0]      
__________________________________________________________________________________________________
DarkRes_4_0 (DarkResidual)      (None, 40, 40, 256)  657408      DarkRes_4_csp_down[0][0]         
__________________________________________________________________________________________________
DarkRes_4_1 (DarkResidual)      (None, 40, 40, 256)  657408      DarkRes_4_0[0][0]                
__________________________________________________________________________________________________
DarkRes_4_2 (DarkResidual)      (None, 40, 40, 256)  657408      DarkRes_4_1[0][0]                
__________________________________________________________________________________________________
DarkRes_4_3 (DarkResidual)      (None, 40, 40, 256)  657408      DarkRes_4_2[0][0]                
__________________________________________________________________________________________________
DarkRes_4_4 (DarkResidual)      (None, 40, 40, 256)  657408      DarkRes_4_3[0][0]                
__________________________________________________________________________________________________
DarkRes_4_5 (DarkResidual)      (None, 40, 40, 256)  657408      DarkRes_4_4[0][0]                
__________________________________________________________________________________________________
DarkRes_4_6 (DarkResidual)      (None, 40, 40, 256)  657408      DarkRes_4_5[0][0]                
__________________________________________________________________________________________________
DarkRes_4_7 (DarkResidual)      (None, 40, 40, 256)  657408      DarkRes_4_6[0][0]                
__________________________________________________________________________________________________
DarkRes_4_csp_connect (CSPConne (None, 40, 40, 512)  330752      DarkRes_4_7[0][0]                
                                                                 DarkRes_4_csp_down[0][1]         
__________________________________________________________________________________________________
DarkRes_5_csp_down (CSPRoute)   ((None, 20, 20, 512) 5775360     DarkRes_4_csp_connect[0][0]      [[… __________________________________________________________________________________________________
DarkRes_5_0 (DarkResidual)      (None, 20, 20, 512)  2625536     DarkRes_5_csp_down[0][0]         
__________________________________________________________________________________________________
DarkRes_5_1 (DarkResidual)      (None, 20, 20, 512)  2625536     DarkRes_5_0[0][0]                
__________________________________________________________________________________________________
DarkRes_5_2 (DarkResidual)      (None, 20, 20, 512)  2625536     DarkRes_5_1[0][0]                
__________________________________________________________________________________________________
DarkRes_5_3 (DarkResidual)      (None, 20, 20, 512)  2625536     DarkRes_5_2[0][0]                
__________________________________________________________________________________________________
DarkRes_5_csp_connect (CSPConne (None, 20, 20, 1024) 1316864     DarkRes_5_3[0][0]                
                                                                 DarkRes_5_csp_down[0][1]         
==================================================================================================
Total params: 26,631,008
Trainable params: 26,596,192
Non-trainable params: 34,816
__________________________________________________________________________________________________
…
2021-07-31 08:03:12.058346: I tensorflow/core/platform/profile_utils/cpu_utils.cc:114] CPU Frequency: 2199995000 Hz
2021-07-31 08:03:15.907388: I tensorflow/stream_executor/platform/default/dso_loader.cc:53] Successfully opened dynamic library libcudnn.so.8
2021-07-31 08:03:16.327481: I tensorflow/stream_executor/cuda/cuda_dnn.cc:359] Loaded cuDNN version 8005
2021-07-31 08:03:17.085225: I tensorflow/stream_executor/platform/default/dso_loader.cc:53] Successfully opened dynamic library libcublas.so.11
2021-07-31 08:03:17.486544: I tensorflow/stream_executor/platform/default/dso_loader.cc:53] Successfully opened dynamic library libcublasLt.so.11
[3, 3, 3, 32] 0.00194855034 ConvBN_0_0/conv2d/kernel:0
[3, 3, 32, 64] -1.28687179 DarkRes_1_residual_down/conv_bn/conv2d/kernel:0
[1, 1, 64, 32] -0.179184482 DarkRes_1_residual_down/conv_bn_1/conv2d_1/kernel:0
[3, 3, 32, 64] 1.41462541 DarkRes_1_residual_down/conv_bn_2/conv2d_2/kernel:0
[3, 3, 64, 128] -3.72596335 DarkRes_2_csp_down/conv_bn/conv2d/kernel:0
[1, 1, 128, 64] 0.277424216 DarkRes_2_csp_down/conv_bn_1/conv2d_1/kernel:0
[1, 1, 128, 64] 0.149975955 DarkRes_2_csp_down/conv_bn_2/conv2d_2/kernel:0
[1, 1, 64, 64] -0.0856362805 DarkRes_2_0/conv_bn/conv2d/kernel:0
[3, 3, 64, 64] -1.5194819 DarkRes_2_0/conv_bn_1/conv2d_1/kernel:0
[1, 1, 64, 64] -0.351785809 DarkRes_2_1/conv_bn/conv2d/kernel:0
[3, 3, 64, 64] 2.58927202 DarkRes_2_1/conv_bn_1/conv2d_1/kernel:0
[1, 1, 64, 64] 0.611346424 DarkRes_2_csp_connect/conv_bn/conv2d/kernel:0
[1, 1, 128, 128] -0.0767800808 DarkRes_2_csp_connect/conv_bn_1/conv2d_1/kernel:0
[3, 3, 128, 256] -1.09515738 DarkRes_3_csp_down/conv_bn/conv2d/kernel:0
[1, 1, 256, 128] 0.769489348 DarkRes_3_csp_down/conv_bn_1/conv2d_1/kernel:0
[1, 1, 256, 128] -0.805886149 DarkRes_3_csp_down/conv_bn_2/conv2d_2/kernel:0
[1, 1, 128, 128] 0.646882057 DarkRes_3_0/conv_bn/conv2d/kernel:0
[3, 3, 128, 128] 0.057354033 DarkRes_3_0/conv_bn_1/conv2d_1/kernel:0
[1, 1, 128, 128] 0.582320452 DarkRes_3_1/conv_bn/conv2d/kernel:0
[3, 3, 128, 128] 0.301147819 DarkRes_3_1/conv_bn_1/conv2d_1/kernel:0
[1, 1, 128, 128] -0.240068555 DarkRes_3_2/conv_bn/conv2d/kernel:0
[3, 3, 128, 128] -1.88880622 DarkRes_3_2/conv_bn_1/conv2d_1/kernel:0
[1, 1, 128, 128] 0.0727856 DarkRes_3_3/conv_bn/conv2d/kernel:0
[3, 3, 128, 128] -1.04365373 DarkRes_3_3/conv_bn_1/conv2d_1/kernel:0
[1, 1, 128, 128] -0.192061484 DarkRes_3_4/conv_bn/conv2d/kernel:0
[3, 3, 128, 128] -0.830383897 DarkRes_3_4/conv_bn_1/conv2d_1/kernel:0
[1, 1, 128, 128] -0.101365611 DarkRes_3_5/conv_bn/conv2d/kernel:0
[3, 3, 128, 128] -1.33148253 DarkRes_3_5/conv_bn_1/conv2d_1/kernel:0
[1, 1, 128, 128] -0.244614 DarkRes_3_6/conv_bn/conv2d/kernel:0
[3, 3, 128, 128] 0.23422122 DarkRes_3_6/conv_bn_1/conv2d_1/kernel:0
[1, 1, 128, 128] 0.147427231 DarkRes_3_7/conv_bn/conv2d/kernel:0
[3, 3, 128, 128] -0.760890722 DarkRes_3_7/conv_bn_1/conv2d_1/kernel:0
[1, 1, 128, 128] 1.09553325 DarkRes_3_csp_connect/conv_bn/conv2d/kernel:0
[1, 1, 256, 256] 0.0193261057 DarkRes_3_csp_connect/conv_bn_1/conv2d_1/kernel:0
[3, 3, 256, 512] 4.52566528 DarkRes_4_csp_down/conv_bn/conv2d/kernel:0
[1, 1, 512, 256] -0.021330148 DarkRes_4_csp_down/conv_bn_1/conv2d_1/kernel:0
[1, 1, 512, 256] 0.633189797 DarkRes_4_csp_down/conv_bn_2/conv2d_2/kernel:0
[1, 1, 256, 256] -2.43968534 DarkRes_4_0/conv_bn/conv2d/kernel:0
[3, 3, 256, 256] 1.23928487 DarkRes_4_0/conv_bn_1/conv2d_1/kernel:0
[1, 1, 256, 256] 0.761283636 DarkRes_4_1/conv_bn/conv2d/kernel:0
[3, 3, 256, 256] -0.51488477 DarkRes_4_1/conv_bn_1/conv2d_1/kernel:0
[1, 1, 256, 256] -0.954464436 DarkRes_4_2/conv_bn/conv2d/kernel:0
[3, 3, 256, 256] -0.851851702 DarkRes_4_2/conv_bn_1/conv2d_1/kernel:0
[1, 1, 256, 256] 0.315917 DarkRes_4_3/conv_bn/conv2d/kernel:0
[3, 3, 256, 256] 0.000497221947 DarkRes_4_3/conv_bn_1/conv2d_1/kernel:0
[1, 1, 256, 256] -0.399321616 DarkRes_4_4/conv_bn/conv2d/kernel:0
[3, 3, 256, 256] -0.385750473 DarkRes_4_4/conv_bn_1/conv2d_1/kernel:0
[1, 1, 256, 256] -0.176271483 DarkRes_4_5/conv_bn/conv2d/kernel:0
[3, 3, 256, 256] -0.179102451 DarkRes_4_5/conv_bn_1/conv2d_1/kernel:0
[1, 1, 256, 256] -0.430333853 DarkRes_4_6/conv_bn/conv2d/kernel:0
[3, 3, 256, 256] -2.27731037 DarkRes_4_6/conv_bn_1/conv2d_1/kernel:0
[1, 1, 256, 256] 0.729750872 DarkRes_4_7/conv_bn/conv2d/kernel:0
[3, 3, 256, 256] -3.50459838 DarkRes_4_7/conv_bn_1/conv2d_1/kernel:0
[1, 1, 256, 256] -0.0553555638 DarkRes_4_csp_connect/conv_bn/conv2d/kernel:0
[1, 1, 512, 512] 4.71016455 DarkRes_4_csp_connect/conv_bn_1/conv2d_1/kernel:0
[3, 3, 512, 1024] -1.24418128 DarkRes_5_csp_down/conv_bn/conv2d/kernel:0
[1, 1, 1024, 512] 3.53878808 DarkRes_5_csp_down/conv_bn_1/conv2d_1/kernel:0
[1, 1, 1024, 512] 1.72817314 DarkRes_5_csp_down/conv_bn_2/conv2d_2/kernel:0
[1, 1, 512, 512] 3.57462192 DarkRes_5_0/conv_bn/conv2d/kernel:0
[3, 3, 512, 512] -0.0831015334 DarkRes_5_0/conv_bn_1/conv2d_1/kernel:0
[1, 1, 512, 512] 0.21726647 DarkRes_5_1/conv_bn/conv2d/kernel:0
[3, 3, 512, 512] -4.7128582 DarkRes_5_1/conv_bn_1/conv2d_1/kernel:0
[1, 1, 512, 512] 0.879359603 DarkRes_5_2/conv_bn/conv2d/kernel:0
[3, 3, 512, 512] -2.31024885 DarkRes_5_2/conv_bn_1/conv2d_1/kernel:0
[1, 1, 512, 512] 1.20040369 DarkRes_5_3/conv_bn/conv2d/kernel:0
[3, 3, 512, 512] -0.351366103 DarkRes_5_3/conv_bn_1/conv2d_1/kernel:0
[1, 1, 512, 512] -2.82140374 DarkRes_5_csp_connect/conv_bn/conv2d/kernel:0
[1, 1, 1024, 1024] 4.50364399 DarkRes_5_csp_connect/conv_bn_1/conv2d_1/kernel:0
[1, 1, 256, 256] 0.174793631 yolo_fpn/dark_route_process_1/csp_route_1/conv_bn_14/conv2d_10/kernel:0
[1, 1, 256, 256] 0.720929 yolo_fpn/dark_route_process_1/csp_route_1/conv_bn_15/conv2d_11/kernel:0
[3, 3, 256, 256] -0.961670697 yolo_fpn/dark_route_process_1/conv_bn_10/conv2d_12/kernel:0
[1, 1, 256, 256] -1.04718745 yolo_fpn/dark_route_process_1/conv_bn_11/conv2d_13/kernel:0
[3, 3, 256, 256] -2.36685729 yolo_fpn/dark_route_process_1/conv_bn_12/conv2d_14/kernel:0
[1, 1, 512, 256] -1.43108106 yolo_fpn/dark_route_process_1/conv_bn_13/conv2d_15/kernel:0
[1, 1, 1024, 512] 1.87545562 yolo_fpn/dark_route_process/csp_route/conv_bn_5/conv2d/kernel:0
[1, 1, 1024, 512] 1.18074107 yolo_fpn/dark_route_process/csp_route/conv_bn_6/conv2d_1/kernel:0
[3, 3, 512, 512] -3.76506519 yolo_fpn/dark_route_process/conv_bn/conv2d_2/kernel:0
[1, 1, 512, 512] 3.72516608 yolo_fpn/dark_route_process/conv_bn_1/conv2d_3/kernel:0
[1, 1, 2048, 512] -3.81683064 yolo_fpn/dark_route_process/conv_bn_2/conv2d_4/kernel:0
[3, 3, 512, 512] -4.00406742 yolo_fpn/dark_route_process/conv_bn_3/conv2d_5/kernel:0
[1, 1, 1024, 512] -1.30387378 yolo_fpn/dark_route_process/conv_bn_4/conv2d_6/kernel:0
[1, 1, 256, 128] 0.0555576086 yolo_fpn/path_aggregation_block_1/conv_bn_16/conv2d_16/kernel:0
[1, 1, 256, 128] 0.437176973 yolo_fpn/path_aggregation_block_1/conv_bn_17/conv2d_17/kernel:0
[1, 1, 256, 128] 0.584636092 yolo_fpn/path_aggregation_block_1/conv_bn_18/conv2d_18/kernel:0
[1, 1, 512, 256] 0.311349154 yolo_fpn/path_aggregation_block/conv_bn_7/conv2d_7/kernel:0
[1, 1, 512, 256] 2.58380723 yolo_fpn/path_aggregation_block/conv_bn_8/conv2d_8/kernel:0
[1, 1, 512, 256] -0.195242926 yolo_fpn/path_aggregation_block/conv_bn_9/conv2d_9/kernel:0
[1, 1, 128, 128] -0.14672567 yolo_pan/dark_route_process/csp_route/conv_bn_5/conv2d/kernel:0
[1, 1, 128, 128] -0.201755092 yolo_pan/dark_route_process/csp_route/conv_bn_6/conv2d_1/kernel:0
[3, 3, 128, 128] -0.466895401 yolo_pan/dark_route_process/conv_bn/conv2d_2/kernel:0
[1, 1, 128, 128] -0.0654342771 yolo_pan/dark_route_process/conv_bn_1/conv2d_3/kernel:0
[3, 3, 128, 128] 0.424906015 yolo_pan/dark_route_process/conv_bn_2/conv2d_4/kernel:0
[1, 1, 256, 128] 0.124908634 yolo_pan/dark_route_process/conv_bn_3/conv2d_5/kernel:0
[3, 3, 128, 256] -1.58258021 yolo_pan/dark_route_process/conv_bn_4/conv2d_6/kernel:0
[1, 1, 256, 256] -0.672916174 yolo_pan/dark_route_process_1/csp_route_1/conv_bn_14/conv2d_9/kernel:0
[1, 1, 256, 256] 0.0399087295 yolo_pan/dark_route_process_1/csp_route_1/conv_bn_15/conv2d_10/kernel:0
[3, 3, 256, 256] -1.39408016 yolo_pan/dark_route_process_1/conv_bn_9/conv2d_11/kernel:0
[1, 1, 256, 256] -0.592210174 yolo_pan/dark_route_process_1/conv_bn_10/conv2d_12/kernel:0
[3, 3, 256, 256] -1.17640841 yolo_pan/dark_route_process_1/conv_bn_11/conv2d_13/kernel:0
[1, 1, 512, 256] -1.52238441 yolo_pan/dark_route_process_1/conv_bn_12/conv2d_14/kernel:0
[3, 3, 256, 512] 3.53227043 yolo_pan/dark_route_process_1/conv_bn_13/conv2d_15/kernel:0
[1, 1, 512, 512] -0.455031842 yolo_pan/dark_route_process_2/csp_route_2/conv_bn_23/conv2d_18/kernel:0
[1, 1, 512, 512] 0.0115543902 yolo_pan/dark_route_process_2/csp_route_2/conv_bn_24/conv2d_19/kernel:0
[3, 3, 512, 512] 1.60362494 yolo_pan/dark_route_process_2/conv_bn_18/conv2d_20/kernel:0
[1, 1, 512, 512] -0.0436668694 yolo_pan/dark_route_process_2/conv_bn_19/conv2d_21/kernel:0
[3, 3, 512, 512] -2.05352807 yolo_pan/dark_route_process_2/conv_bn_20/conv2d_22/kernel:0
[1, 1, 1024, 512] -2.82021165 yolo_pan/dark_route_process_2/conv_bn_21/conv2d_23/kernel:0
[3, 3, 512, 1024] -4.74264622 yolo_pan/dark_route_process_2/conv_bn_22/conv2d_24/kernel:0
[3, 3, 128, 256] 1.219046 yolo_pan/path_aggregation_block/conv_bn_7/conv2d_7/kernel:0
[1, 1, 512, 256] -1.85326254 yolo_pan/path_aggregation_block/conv_bn_8/conv2d_8/kernel:0
[3, 3, 256, 512] 0.0150697678 yolo_pan/path_aggregation_block_1/conv_bn_16/conv2d_16/kernel:0
[1, 1, 1024, 512] -3.11663079 yolo_pan/path_aggregation_block_1/conv_bn_17/conv2d_17/kernel:0
[1, 1, 256, 255] -3.09104943 yolo_head/conv_bn/conv2d/kernel:0
[1, 1, 512, 255] 4.44450569 yolo_head/conv_bn_1/conv2d_1/kernel:0
[1, 1, 1024, 255] -3.98486209 yolo_head/conv_bn_2/conv2d_2/kernel:0
[9 25 30] 1 0.0468111187
[3, 3, 3, 32] -0.0329568833 ConvBN_0_0/conv2d/kernel:0
[3, 3, 32, 64] 0.00622894242 DarkRes_1_residual_down/conv_bn/conv2d/kernel:0
[1, 1, 64, 32] 0.0242790654 DarkRes_1_residual_down/conv_bn_1/conv2d_1/kernel:0
[3, 3, 32, 64] 0.244143367 DarkRes_1_residual_down/conv_bn_2/conv2d_2/kernel:0
[3, 3, 64, 128] 0.0882843733 DarkRes_2_csp_down/conv_bn/conv2d/kernel:0
[1, 1, 128, 64] -0.0688073486 DarkRes_2_csp_down/conv_bn_1/conv2d_1/kernel:0
[1, 1, 128, 64] 0.037456 DarkRes_2_csp_down/conv_bn_2/conv2d_2/kernel:0
[1, 1, 64, 64] -0.0540833138 DarkRes_2_0/conv_bn/conv2d/kernel:0
[3, 3, 64, 64] 0.155254692 DarkRes_2_0/conv_bn_1/conv2d_1/kernel:0
[1, 1, 64, 64] 0.00993869454 DarkRes_2_1/conv_bn/conv2d/kernel:0
[3, 3, 64, 64] -0.00730306841 DarkRes_2_1/conv_bn_1/conv2d_1/kernel:0
[1, 1, 64, 64] -0.0749148279 DarkRes_2_csp_connect/conv_bn/conv2d/kernel:0
[1, 1, 128, 128] -0.132300213 DarkRes_2_csp_connect/conv_bn_1/conv2d_1/kernel:0
[3, 3, 128, 256] 0.507252276 DarkRes_3_csp_down/conv_bn/conv2d/kernel:0
[1, 1, 256, 128] -0.108780175 DarkRes_3_csp_down/conv_bn_1/conv2d_1/kernel:0
[1, 1, 256, 128] -0.215018421 DarkRes_3_csp_down/conv_bn_2/conv2d_2/kernel:0
[1, 1, 128, 128] 0.339641154 DarkRes_3_0/conv_bn/conv2d/kernel:0
[3, 3, 128, 128] 0.176210016 DarkRes_3_0/conv_bn_1/conv2d_1/kernel:0
[1, 1, 128, 128] 0.183587283 DarkRes_3_1/conv_bn/conv2d/kernel:0
[3, 3, 128, 128] -0.728271127 DarkRes_3_1/conv_bn_1/conv2d_1/kernel:0
[1, 1, 128, 128] 0.0333207771 DarkRes_3_2/conv_bn/conv2d/kernel:0
[3, 3, 128, 128] -0.365765065 DarkRes_3_2/conv_bn_1/conv2d_1/kernel:0
[1, 1, 128, 128] 0.0693236142 DarkRes_3_3/conv_bn/conv2d/kernel:0
[3, 3, 128, 128] -0.430691659 DarkRes_3_3/conv_bn_1/conv2d_1/kernel:0
[1, 1, 128, 128] -0.0105980039 DarkRes_3_4/conv_bn/conv2d/kernel:0
[3, 3, 128, 128] 0.0667864 DarkRes_3_4/conv_bn_1/conv2d_1/kernel:0
[1, 1, 128, 128] 0.178545281 DarkRes_3_5/conv_bn/conv2d/kernel:0
[3, 3, 128, 128] -0.178166747 DarkRes_3_5/conv_bn_1/conv2d_1/kernel:0
[1, 1, 128, 128] 0.0601616837 DarkRes_3_6/conv_bn/conv2d/kernel:0
[3, 3, 128, 128] 0.0912227929 DarkRes_3_6/conv_bn_1/conv2d_1/kernel:0
[1, 1, 128, 128] 0.180681616 DarkRes_3_7/conv_bn/conv2d/kernel:0
[3, 3, 128, 128] 0.122811101 DarkRes_3_7/conv_bn_1/conv2d_1/kernel:0
[1, 1, 128, 128] 0.213435486 DarkRes_3_csp_connect/conv_bn/conv2d/kernel:0
[1, 1, 256, 256] 0.358402729 DarkRes_3_csp_connect/conv_bn_1/conv2d_1/kernel:0
[3, 3, 256, 512] 0.217748016 DarkRes_4_csp_down/conv_bn/conv2d/kernel:0
[1, 1, 512, 256] -0.104291424 DarkRes_4_csp_down/conv_bn_1/conv2d_1/kernel:0
[1, 1, 512, 256] 0.185886 DarkRes_4_csp_down/conv_bn_2/conv2d_2/kernel:0
[1, 1, 256, 256] 0.663545847 DarkRes_4_0/conv_bn/conv2d/kernel:0
[3, 3, 256, 256] 0.0862371922 DarkRes_4_0/conv_bn_1/conv2d_1/kernel:0
[1, 1, 256, 256] 0.0596738756 DarkRes_4_1/conv_bn/conv2d/kernel:0
[3, 3, 256, 256] 0.298235089 DarkRes_4_1/conv_bn_1/conv2d_1/kernel:0
[1, 1, 256, 256] 0.270498395 DarkRes_4_2/conv_bn/conv2d/kernel:0
[3, 3, 256, 256] 0.227525353 DarkRes_4_2/conv_bn_1/conv2d_1/kernel:0
[1, 1, 256, 256] -0.0774925947 DarkRes_4_3/conv_bn/conv2d/kernel:0
[3, 3, 256, 256] -0.478213251 DarkRes_4_3/conv_bn_1/conv2d_1/kernel:0
[1, 1, 256, 256] -0.0292344168 DarkRes_4_4/conv_bn/conv2d/kernel:0
[3, 3, 256, 256] 0.138749644 DarkRes_4_4/conv_bn_1/conv2d_1/kernel:0
[1, 1, 256, 256] 0.0261683129 DarkRes_4_5/conv_bn/conv2d/kernel:0
[3, 3, 256, 256] 0.451637208 DarkRes_4_5/conv_bn_1/conv2d_1/kernel:0
[1, 1, 256, 256] 0.308105767 DarkRes_4_6/conv_bn/conv2d/kernel:0
[3, 3, 256, 256] 0.0558805317 DarkRes_4_6/conv_bn_1/conv2d_1/kernel:0
[1, 1, 256, 256] -0.0375567898 DarkRes_4_7/conv_bn/conv2d/kernel:0
[3, 3, 256, 256] -0.35943374 DarkRes_4_7/conv_bn_1/conv2d_1/kernel:0
[1, 1, 256, 256] 0.00988137349 DarkRes_4_csp_connect/conv_bn/conv2d/kernel:0
[1, 1, 512, 512] -0.138280869 DarkRes_4_csp_connect/conv_bn_1/conv2d_1/kernel:0
[3, 3, 512, 1024] 0.26671958 DarkRes_5_csp_down/conv_bn/conv2d/kernel:0
[1, 1, 1024, 512] -0.38906 DarkRes_5_csp_down/conv_bn_1/conv2d_1/kernel:0
[1, 1, 1024, 512] -0.019315742 DarkRes_5_csp_down/conv_bn_2/conv2d_2/kernel:0
[1, 1, 512, 512] 0.35586369 DarkRes_5_0/conv_bn/conv2d/kernel:0
[3, 3, 512, 512] -0.565661967 DarkRes_5_0/conv_bn_1/conv2d_1/kernel:0
[1, 1, 512, 512] 0.582287431 DarkRes_5_1/conv_bn/conv2d/kernel:0
[3, 3, 512, 512] 0.31780684 DarkRes_5_1/conv_bn_1/conv2d_1/kernel:0
[1, 1, 512, 512] 0.892676234 DarkRes_5_2/conv_bn/conv2d/kernel:0
[3, 3, 512, 512] -0.111544743 DarkRes_5_2/conv_bn_1/conv2d_1/kernel:0
[1, 1, 512, 512] 0.258486569 DarkRes_5_3/conv_bn/conv2d/kernel:0
[3, 3, 512, 512] -1.34289765 DarkRes_5_3/conv_bn_1/conv2d_1/kernel:0
[1, 1, 512, 512] -0.565755188 DarkRes_5_csp_connect/conv_bn/conv2d/kernel:0
[1, 1, 1024, 1024] 2.82972 DarkRes_5_csp_connect/conv_bn_1/conv2d_1/kernel:0
[1, 1, 256, 256] 0.0580378175 yolo_fpn/dark_route_process_1/csp_route_1/conv_bn_14/conv2d_10/kernel:0
[1, 1, 256, 256] -0.108789787 yolo_fpn/dark_route_process_1/csp_route_1/conv_bn_15/conv2d_11/kernel:0
[3, 3, 256, 256] -0.711495 yolo_fpn/dark_route_process_1/conv_bn_10/conv2d_12/kernel:0
[1, 1, 256, 256] -0.0666389763 yolo_fpn/dark_route_process_1/conv_bn_11/conv2d_13/kernel:0
[3, 3, 256, 256] -0.444421619 yolo_fpn/dark_route_process_1/conv_bn_12/conv2d_14/kernel:0
[1, 1, 512, 256] -0.261038601 yolo_fpn/dark_route_process_1/conv_bn_13/conv2d_15/kernel:0
[1, 1, 1024, 512] 0.311120749 yolo_fpn/dark_route_process/csp_route/conv_bn_5/conv2d/kernel:0
[1, 1, 1024, 512] 0.304274023 yolo_fpn/dark_route_process/csp_route/conv_bn_6/conv2d_1/kernel:0
[3, 3, 512, 512] -0.711542428 yolo_fpn/dark_route_process/conv_bn/conv2d_2/kernel:0
[1, 1, 512, 512] 0.311649501 yolo_fpn/dark_route_process/conv_bn_1/conv2d_3/kernel:0
[1, 1, 2048, 512] 0.646055877 yolo_fpn/dark_route_process/conv_bn_2/conv2d_4/kernel:0
[3, 3, 512, 512] -1.1255945 yolo_fpn/dark_route_process/conv_bn_3/conv2d_5/kernel:0
[1, 1, 1024, 512] -0.373756886 yolo_fpn/dark_route_process/conv_bn_4/conv2d_6/kernel:0
[1, 1, 256, 128] 0.0880399868 yolo_fpn/path_aggregation_block_1/conv_bn_16/conv2d_16/kernel:0
[1, 1, 256, 128] 0.0670611262 yolo_fpn/path_aggregation_block_1/conv_bn_17/conv2d_17/kernel:0
[1, 1, 256, 128] 0.172571123 yolo_fpn/path_aggregation_block_1/conv_bn_18/conv2d_18/kernel:0
[1, 1, 512, 256] 0.0373875313 yolo_fpn/path_aggregation_block/conv_bn_7/conv2d_7/kernel:0
[1, 1, 512, 256] 0.188376695 yolo_fpn/path_aggregation_block/conv_bn_8/conv2d_8/kernel:0
[1, 1, 512, 256] 0.252042115 yolo_fpn/path_aggregation_block/conv_bn_9/conv2d_9/kernel:0
[1, 1, 128, 128] 0.130911082 yolo_pan/dark_route_process/csp_route/conv_bn_5/conv2d/kernel:0
[1, 1, 128, 128] 0.00242339121 yolo_pan/dark_route_process/csp_route/conv_bn_6/conv2d_1/kernel:0
[3, 3, 128, 128] 0.0469021238 yolo_pan/dark_route_process/conv_bn/conv2d_2/kernel:0
[1, 1, 128, 128] 0.0321898311 yolo_pan/dark_route_process/conv_bn_1/conv2d_3/kernel:0
[3, 3, 128, 128] -0.254106283 yolo_pan/dark_route_process/conv_bn_2/conv2d_4/kernel:0
[1, 1, 256, 128] 0.0928129 yolo_pan/dark_route_process/conv_bn_3/conv2d_5/kernel:0
[3, 3, 128, 256] -0.10895811 yolo_pan/dark_route_process/conv_bn_4/conv2d_6/kernel:0
[1, 1, 256, 256] -0.0361845419 yolo_pan/dark_route_process_1/csp_route_1/conv_bn_14/conv2d_9/kernel:0
[1, 1, 256, 256] -0.00343415234 yolo_pan/dark_route_process_1/csp_route_1/conv_bn_15/conv2d_10/kernel:0
[3, 3, 256, 256] -0.598209739 yolo_pan/dark_route_process_1/conv_bn_9/conv2d_11/kernel:0
[1, 1, 256, 256] -0.119492754 yolo_pan/dark_route_process_1/conv_bn_10/conv2d_12/kernel:0
[3, 3, 256, 256] 0.856411099 yolo_pan/dark_route_process_1/conv_bn_11/conv2d_13/kernel:0
[1, 1, 512, 256] -0.285303771 yolo_pan/dark_route_process_1/conv_bn_12/conv2d_14/kernel:0
[3, 3, 256, 512] 0.157824531 yolo_pan/dark_route_process_1/conv_bn_13/conv2d_15/kernel:0
[1, 1, 512, 512] 0.412388086 yolo_pan/dark_route_process_2/csp_route_2/conv_bn_23/conv2d_18/kernel:0
[1, 1, 512, 512] 0.453654051 yolo_pan/dark_route_process_2/csp_route_2/conv_bn_24/conv2d_19/kernel:0
[3, 3, 512, 512] 0.403672397 yolo_pan/dark_route_process_2/conv_bn_18/conv2d_20/kernel:0
[1, 1, 512, 512] -0.0742023662 yolo_pan/dark_route_process_2/conv_bn_19/conv2d_21/kernel:0
[3, 3, 512, 512] -4.80438328 yolo_pan/dark_route_process_2/conv_bn_20/conv2d_22/kernel:0
[1, 1, 1024, 512] -3.8312335 yolo_pan/dark_route_process_2/conv_bn_21/conv2d_23/kernel:0
[3, 3, 512, 1024] -26.5609837 yolo_pan/dark_route_process_2/conv_bn_22/conv2d_24/kernel:0
[3, 3, 128, 256] 0.325457871 yolo_pan/path_aggregation_block/conv_bn_7/conv2d_7/kernel:0
[1, 1, 512, 256] -0.175533444 yolo_pan/path_aggregation_block/conv_bn_8/conv2d_8/kernel:0
[3, 3, 256, 512] 1.19596255 yolo_pan/path_aggregation_block_1/conv_bn_16/conv2d_16/kernel:0
[1, 1, 1024, 512] -1.9497472 yolo_pan/path_aggregation_block_1/conv_bn_17/conv2d_17/kernel:0
[1, 1, 256, 255] 0.181533843 yolo_head/conv_bn/conv2d/kernel:0
[1, 1, 512, 255] 0.522022843 yolo_head/conv_bn_1/conv2d_1/kernel:0
[1, 1, 1024, 255] -3.89915323 yolo_head/conv_bn_2/conv2d_2/kernel:0
[34 36 42] 2 0.00896360632
[3, 3, 3, 32] -0.137405008 ConvBN_0_0/conv2d/kernel:0
[3, 3, 32, 64] 0.407788485 DarkRes_1_residual_down/conv_bn/conv2d/kernel:0
[1, 1, 64, 32] -0.168396682 DarkRes_1_residual_down/conv_bn_1/conv2d_1/kernel:0
[3, 3, 32, 64] -0.216327429 DarkRes_1_residual_down/conv_bn_2/conv2d_2/kernel:0
[3, 3, 64, 128] 0.249144256 DarkRes_2_csp_down/conv_bn/conv2d/kernel:0
[1, 1, 128, 64] -0.052723065 DarkRes_2_csp_down/conv_bn_1/conv2d_1/kernel:0
[1, 1, 128, 64] -0.360122591 DarkRes_2_csp_down/conv_bn_2/conv2d_2/kernel:0
[1, 1, 64, 64] 0.276908934 DarkRes_2_0/conv_bn/conv2d/kernel:0
[3, 3, 64, 64] -0.26110673 DarkRes_2_0/conv_bn_1/conv2d_1/kernel:0
[1, 1, 64, 64] -0.0704724863 DarkRes_2_1/conv_bn/conv2d/kernel:0
[3, 3, 64, 64] 1.91715717 DarkRes_2_1/conv_bn_1/conv2d_1/kernel:0
[1, 1, 64, 64] 0.118283585 DarkRes_2_csp_connect/conv_bn/conv2d/kernel:0
[1, 1, 128, 128] -0.867576 DarkRes_2_csp_connect/conv_bn_1/conv2d_1/kernel:0
[3, 3, 128, 256] 3.65101 DarkRes_3_csp_down/conv_bn/conv2d/kernel:0
[1, 1, 256, 128] 1.21388376 DarkRes_3_csp_down/conv_bn_1/conv2d_1/kernel:0
[1, 1, 256, 128] -0.904787064 DarkRes_3_csp_down/conv_bn_2/conv2d_2/kernel:0
[1, 1, 128, 128] -0.920735717 DarkRes_3_0/conv_bn/conv2d/kernel:0
[3, 3, 128, 128] -0.158153459 DarkRes_3_0/conv_bn_1/conv2d_1/kernel:0
[1, 1, 128, 128] 0.323223 DarkRes_3_1/conv_bn/conv2d/kernel:0
[3, 3, 128, 128] -0.458667755 DarkRes_3_1/conv_bn_1/conv2d_1/kernel:0
[1, 1, 128, 128] 0.672354221 DarkRes_3_2/conv_bn/conv2d/kernel:0
[3, 3, 128, 128] -0.331283 DarkRes_3_2/conv_bn_1/conv2d_1/kernel:0
[1, 1, 128, 128] 0.560976624 DarkRes_3_3/conv_bn/conv2d/kernel:0
[3, 3, 128, 128] -0.932801604 DarkRes_3_3/conv_bn_1/conv2d_1/kernel:0
[1, 1, 128, 128] 0.00260210037 DarkRes_3_4/conv_bn/conv2d/kernel:0
[3, 3, 128, 128] -0.81882751 DarkRes_3_4/conv_bn_1/conv2d_1/kernel:0
[1, 1, 128, 128] -0.132818565 DarkRes_3_5/conv_bn/conv2d/kernel:0
[3, 3, 128, 128] -0.176383018 DarkRes_3_5/conv_bn_1/conv2d_1/kernel:0
[1, 1, 128, 128] 0.162151277 DarkRes_3_6/conv_bn/conv2d/kernel:0
[3, 3, 128, 128] -0.1145318 DarkRes_3_6/conv_bn_1/conv2d_1/kernel:0
[1, 1, 128, 128] -0.482075214 DarkRes_3_7/conv_bn/conv2d/kernel:0
[3, 3, 128, 128] 0.289357781 DarkRes_3_7/conv_bn_1/conv2d_1/kernel:0
[1, 1, 128, 128] -0.864017785 DarkRes_3_csp_connect/conv_bn/conv2d/kernel:0
[1, 1, 256, 256] 0.509104729 DarkRes_3_csp_connect/conv_bn_1/conv2d_1/kernel:0
[3, 3, 256, 512] 7.99843073 DarkRes_4_csp_down/conv_bn/conv2d/kernel:0
[1, 1, 512, 256] 1.57578409 DarkRes_4_csp_down/conv_bn_1/conv2d_1/kernel:0
[1, 1, 512, 256] 1.94243789 DarkRes_4_csp_down/conv_bn_2/conv2d_2/kernel:0
[1, 1, 256, 256] 2.5218 DarkRes_4_0/conv_bn/conv2d/kernel:0
[3, 3, 256, 256] -0.161509603 DarkRes_4_0/conv_bn_1/conv2d_1/kernel:0
[1, 1, 256, 256] 2.32993984 DarkRes_4_1/conv_bn/conv2d/kernel:0
[3, 3, 256, 256] 1.57492554 DarkRes_4_1/conv_bn_1/conv2d_1/kernel:0
[1, 1, 256, 256] -0.69233954 DarkRes_4_2/conv_bn/conv2d/kernel:0
[3, 3, 256, 256] -0.154435232 DarkRes_4_2/conv_bn_1/conv2d_1/kernel:0
[1, 1, 256, 256] -0.0517552048 DarkRes_4_3/conv_bn/conv2d/kernel:0
[3, 3, 256, 256] 0.866448522 DarkRes_4_3/conv_bn_1/conv2d_1/kernel:0
[1, 1, 256, 256] -0.765726924 DarkRes_4_4/conv_bn/conv2d/kernel:0
[3, 3, 256, 256] 0.375547171 DarkRes_4_4/conv_bn_1/conv2d_1/kernel:0
[1, 1, 256, 256] -0.257681072 DarkRes_4_5/conv_bn/conv2d/kernel:0
[3, 3, 256, 256] 2.36493564 DarkRes_4_5/conv_bn_1/conv2d_1/kernel:0
[1, 1, 256, 256] 0.430250466 DarkRes_4_6/conv_bn/conv2d/kernel:0
[3, 3, 256, 256] 1.8905344 DarkRes_4_6/conv_bn_1/conv2d_1/kernel:0
[1, 1, 256, 256] 0.468305588 DarkRes_4_7/conv_bn/conv2d/kernel:0
[3, 3, 256, 256] 2.27844954 DarkRes_4_7/conv_bn_1/conv2d_1/kernel:0
[1, 1, 256, 256] -1.17347121 DarkRes_4_csp_connect/conv_bn/conv2d/kernel:0
[1, 1, 512, 512] -0.783928514 DarkRes_4_csp_connect/conv_bn_1/conv2d_1/kernel:0
[3, 3, 512, 1024] 1.75981021 DarkRes_5_csp_down/conv_bn/conv2d/kernel:0
[1, 1, 1024, 512] -0.231440917 DarkRes_5_csp_down/conv_bn_1/conv2d_1/kernel:0
[1, 1, 1024, 512] -0.355115473 DarkRes_5_csp_down/conv_bn_2/conv2d_2/kernel:0
[1, 1, 512, 512] 3.09017563 DarkRes_5_0/conv_bn/conv2d/kernel:0
[3, 3, 512, 512] 1.50502491 DarkRes_5_0/conv_bn_1/conv2d_1/kernel:0
[1, 1, 512, 512] -1.28551781 DarkRes_5_1/conv_bn/conv2d/kernel:0
[3, 3, 512, 512] 0.617971897 DarkRes_5_1/conv_bn_1/conv2d_1/kernel:0
[1, 1, 512, 512] 0.0602335706 DarkRes_5_2/conv_bn/conv2d/kernel:0
[3, 3, 512, 512] 4.98774958 DarkRes_5_2/conv_bn_1/conv2d_1/kernel:0
[1, 1, 512, 512] 0.242752969 DarkRes_5_3/conv_bn/conv2d/kernel:0
[3, 3, 512, 512] 1.5736115 DarkRes_5_3/conv_bn_1/conv2d_1/kernel:0
[1, 1, 512, 512] -0.900691032 DarkRes_5_csp_connect/conv_bn/conv2d/kernel:0
[1, 1, 1024, 1024] -1.97039461 DarkRes_5_csp_connect/conv_bn_1/conv2d_1/kernel:0
[1, 1, 256, 256] -0.492176294 yolo_fpn/dark_route_process_1/csp_route_1/conv_bn_14/conv2d_10/kernel:0
[1, 1, 256, 256] -0.406224817 yolo_fpn/dark_route_process_1/csp_route_1/conv_bn_15/conv2d_11/kernel:0
[3, 3, 256, 256] -1.08924353 yolo_fpn/dark_route_process_1/conv_bn_10/conv2d_12/kernel:0
[1, 1, 256, 256] 0.528677702 yolo_fpn/dark_route_process_1/conv_bn_11/conv2d_13/kernel:0
[3, 3, 256, 256] -0.767649829 yolo_fpn/dark_route_process_1/conv_bn_12/conv2d_14/kernel:0
[1, 1, 512, 256] -1.07892609 yolo_fpn/dark_route_process_1/conv_bn_13/conv2d_15/kernel:0
[1, 1, 1024, 512] 2.84469032 yolo_fpn/dark_route_process/csp_route/conv_bn_5/conv2d/kernel:0
[1, 1, 1024, 512] -3.14171982 yolo_fpn/dark_route_process/csp_route/conv_bn_6/conv2d_1/kernel:0
[3, 3, 512, 512] 5.6363945 yolo_fpn/dark_route_process/conv_bn/conv2d_2/kernel:0
[1, 1, 512, 512] 5.55738544 yolo_fpn/dark_route_process/conv_bn_1/conv2d_3/kernel:0
[1, 1, 2048, 512] 3.18669033 yolo_fpn/dark_route_process/conv_bn_2/conv2d_4/kernel:0
[3, 3, 512, 512] -5.46920919 yolo_fpn/dark_route_process/conv_bn_3/conv2d_5/kernel:0
[1, 1, 1024, 512] -1.85401607 yolo_fpn/dark_route_process/conv_bn_4/conv2d_6/kernel:0
[1, 1, 256, 128] -0.233767778 yolo_fpn/path_aggregation_block_1/conv_bn_16/conv2d_16/kernel:0
[1, 1, 256, 128] 1.2335428 yolo_fpn/path_aggregation_block_1/conv_bn_17/conv2d_17/kernel:0
[1, 1, 256, 128] 0.320231676 yolo_fpn/path_aggregation_block_1/conv_bn_18/conv2d_18/kernel:0
[1, 1, 512, 256] -1.23290527 yolo_fpn/path_aggregation_block/conv_bn_7/conv2d_7/kernel:0
[1, 1, 512, 256] 3.5062089 yolo_fpn/path_aggregation_block/conv_bn_8/conv2d_8/kernel:0
[1, 1, 512, 256] -0.245464385 yolo_fpn/path_aggregation_block/conv_bn_9/conv2d_9/kernel:0
[1, 1, 128, 128] 0.0713804364 yolo_pan/dark_route_process/csp_route/conv_bn_5/conv2d/kernel:0
[1, 1, 128, 128] -0.0400223285 yolo_pan/dark_route_process/csp_route/conv_bn_6/conv2d_1/kernel:0
[3, 3, 128, 128] -1.31851077 yolo_pan/dark_route_process/conv_bn/conv2d_2/kernel:0
[1, 1, 128, 128] 0.209386066 yolo_pan/dark_route_process/conv_bn_1/conv2d_3/kernel:0
[3, 3, 128, 128] -0.189446434 yolo_pan/dark_route_process/conv_bn_2/conv2d_4/kernel:0
[1, 1, 256, 128] 0.323937982 yolo_pan/dark_route_process/conv_bn_3/conv2d_5/kernel:0
[3, 3, 128, 256] -0.409745127 yolo_pan/dark_route_process/conv_bn_4/conv2d_6/kernel:0
[1, 1, 256, 256] -0.255197287 yolo_pan/dark_route_process_1/csp_route_1/conv_bn_14/conv2d_9/kernel:0
[1, 1, 256, 256] -0.136604756 yolo_pan/dark_route_process_1/csp_route_1/conv_bn_15/conv2d_10/kernel:0
[3, 3, 256, 256] -0.180488646 yolo_pan/dark_route_process_1/conv_bn_9/conv2d_11/kernel:0
[1, 1, 256, 256] -0.670617104 yolo_pan/dark_route_process_1/conv_bn_10/conv2d_12/kernel:0
[3, 3, 256, 256] -1.40461302 yolo_pan/dark_route_process_1/conv_bn_11/conv2d_13/kernel:0
[1, 1, 512, 256] 0.26704 yolo_pan/dark_route_process_1/conv_bn_12/conv2d_14/kernel:0
[3, 3, 256, 512] 1.07816219 yolo_pan/dark_route_process_1/conv_bn_13/conv2d_15/kernel:0
[1, 1, 512, 512] -0.849011064 yolo_pan/dark_route_process_2/csp_route_2/conv_bn_23/conv2d_18/kernel:0
[1, 1, 512, 512] -0.398129106 yolo_pan/dark_route_process_2/csp_route_2/conv_bn_24/conv2d_19/kernel:0
[3, 3, 512, 512] -0.271609813 yolo_pan/dark_route_process_2/conv_bn_18/conv2d_20/kernel:0
[1, 1, 512, 512] 0.107759893 yolo_pan/dark_route_process_2/conv_bn_19/conv2d_21/kernel:0
[3, 3, 512, 512] -0.643762648 yolo_pan/dark_route_process_2/conv_bn_20/conv2d_22/kernel:0
[1, 1, 1024, 512] -1.0779779 yolo_pan/dark_route_process_2/conv_bn_21/conv2d_23/kernel:0
[3, 3, 512, 1024] -0.993525088 yolo_pan/dark_route_process_2/conv_bn_22/conv2d_24/kernel:0
[3, 3, 128, 256] -0.352462769 yolo_pan/path_aggregation_block/conv_bn_7/conv2d_7/kernel:0
[1, 1, 512, 256] -0.877853155 yolo_pan/path_aggregation_block/conv_bn_8/conv2d_8/kernel:0
[3, 3, 256, 512] 1.52271 yolo_pan/path_aggregation_block_1/conv_bn_16/conv2d_16/kernel:0
[1, 1, 1024, 512] -1.21551895 yolo_pan/path_aggregation_block_1/conv_bn_17/conv2d_17/kernel:0
[1, 1, 256, 255] -0.719151 yolo_head/conv_bn/conv2d/kernel:0
[1, 1, 512, 255] 1.97445047 yolo_head/conv_bn_1/conv2d_1/kernel:0
[1, 1, 1024, 255] 1.42851925 yolo_head/conv_bn_2/conv2d_2/kernel:0
[49 61 64] 3 0.0687762499
[3, 3, 3, 32] -0.798147321 ConvBN_0_0/conv2d/kernel:0
[3, 3, 32, 64] 1.30843782 DarkRes_1_residual_down/conv_bn/conv2d/kernel:0
[1, 1, 64, 32] -0.067525208 DarkRes_1_residual_down/conv_bn_1/conv2d_1/kernel:0
[3, 3, 32, 64] -0.413708329 DarkRes_1_residual_down/conv_bn_2/conv2d_2/kernel:0
[3, 3, 64, 128] -0.774529457 DarkRes_2_csp_down/conv_bn/conv2d/kernel:0
[1, 1, 128, 64] -0.0570316464 DarkRes_2_csp_down/conv_bn_1/conv2d_1/kernel:0
[1, 1, 128, 64] 0.0416186303 DarkRes_2_csp_down/conv_bn_2/conv2d_2/kernel:0
[1, 1, 64, 64] -0.190536514 DarkRes_2_0/conv_bn/conv2d/kernel:0
[3, 3, 64, 64] -2.80093288 DarkRes_2_0/conv_bn_1/conv2d_1/kernel:0
[1, 1, 64, 64] -0.13544327 DarkRes_2_1/conv_bn/conv2d/kernel:0
[3, 3, 64, 64] -0.433632523 DarkRes_2_1/conv_bn_1/conv2d_1/kernel:0
[1, 1, 64, 64] -0.237559259 DarkRes_2_csp_connect/conv_bn/conv2d/kernel:0
[1, 1, 128, 128] 0.317704022 DarkRes_2_csp_connect/conv_bn_1/conv2d_1/kernel:0
[3, 3, 128, 256] 12.197917 DarkRes_3_csp_down/conv_bn/conv2d/kernel:0
[1, 1, 256, 128] 1.75586569 DarkRes_3_csp_down/conv_bn_1/conv2d_1/kernel:0
[1, 1, 256, 128] -0.852914 DarkRes_3_csp_down/conv_bn_2/conv2d_2/kernel:0
[1, 1, 128, 128] -0.443679839 DarkRes_3_0/conv_bn/conv2d/kernel:0
[3, 3, 128, 128] -1.34009898 DarkRes_3_0/conv_bn_1/conv2d_1/kernel:0
[1, 1, 128, 128] -0.274043977 DarkRes_3_1/conv_bn/conv2d/kernel:0
[3, 3, 128, 128] -0.345491111 DarkRes_3_1/conv_bn_1/conv2d_1/kernel:0
[1, 1, 128, 128] -0.0620075464 DarkRes_3_2/conv_bn/conv2d/kernel:0
[3, 3, 128, 128] 5.10571575 DarkRes_3_2/conv_bn_1/conv2d_1/kernel:0
[1, 1, 128, 128] -0.894112587 DarkRes_3_3/conv_bn/conv2d/kernel:0
[3, 3, 128, 128] 4.2464 DarkRes_3_3/conv_bn_1/conv2d_1/kernel:0
[1, 1, 128, 128] -0.142995149 DarkRes_3_4/conv_bn/conv2d/kernel:0
[3, 3, 128, 128] -0.678835034 DarkRes_3_4/conv_bn_1/conv2d_1/kernel:0
[1, 1, 128, 128] 0.542887 DarkRes_3_5/conv_bn/conv2d/kernel:0
[3, 3, 128, 128] 0.417959124 DarkRes_3_5/conv_bn_1/conv2d_1/kernel:0
[1, 1, 128, 128] 1.13004291 DarkRes_3_6/conv_bn/conv2d/kernel:0
[3, 3, 128, 128] 0.440155625 DarkRes_3_6/conv_bn_1/conv2d_1/kernel:0
[1, 1, 128, 128] -0.437266529 DarkRes_3_7/conv_bn/conv2d/kernel:0
[3, 3, 128, 128] -2.91975069 DarkRes_3_7/conv_bn_1/conv2d_1/kernel:0
[1, 1, 128, 128] 2.21199751 DarkRes_3_csp_connect/conv_bn/conv2d/kernel:0
[1, 1, 256, 256] 0.863326967 DarkRes_3_csp_connect/conv_bn_1/conv2d_1/kernel:0
[3, 3, 256, 512] 8.88366795 DarkRes_4_csp_down/conv_bn/conv2d/kernel:0
[1, 1, 512, 256] 3.08954787 DarkRes_4_csp_down/conv_bn_1/conv2d_1/kernel:0
[1, 1, 512, 256] -0.226045385 DarkRes_4_csp_down/conv_bn_2/conv2d_2/kernel:0
[1, 1, 256, 256] -5.55409908 DarkRes_4_0/conv_bn/conv2d/kernel:0
[3, 3, 256, 256] -2.11063814 DarkRes_4_0/conv_bn_1/conv2d_1/kernel:0
[1, 1, 256, 256] 0.575946748 DarkRes_4_1/conv_bn/conv2d/kernel:0
[3, 3, 256, 256] 1.61258721 DarkRes_4_1/conv_bn_1/conv2d_1/kernel:0
[1, 1, 256, 256] 1.01612234 DarkRes_4_2/conv_bn/conv2d/kernel:0
[3, 3, 256, 256] -1.60126102 DarkRes_4_2/conv_bn_1/conv2d_1/kernel:0
[1, 1, 256, 256] -0.247628599 DarkRes_4_3/conv_bn/conv2d/kernel:0
[3, 3, 256, 256] -3.01769876 DarkRes_4_3/conv_bn_1/conv2d_1/kernel:0
[1, 1, 256, 256] -0.0390003324 DarkRes_4_4/conv_bn/conv2d/kernel:0
[3, 3, 256, 256] -0.740671277 DarkRes_4_4/conv_bn_1/conv2d_1/kernel:0
[1, 1, 256, 256] -0.511762619 DarkRes_4_5/conv_bn/conv2d/kernel:0
[3, 3, 256, 256] -2.77155781 DarkRes_4_5/conv_bn_1/conv2d_1/kernel:0
[1, 1, 256, 256] 0.780202508 DarkRes_4_6/conv_bn/conv2d/kernel:0
[3, 3, 256, 256] -1.87087286 DarkRes_4_6/conv_bn_1/conv2d_1/kernel:0
[1, 1, 256, 256] 0.94762814 DarkRes_4_7/conv_bn/conv2d/kernel:0
[3, 3, 256, 256] 2.11852694 DarkRes_4_7/conv_bn_1/conv2d_1/kernel:0
[1, 1, 256, 256] -0.691733837 DarkRes_4_csp_connect/conv_bn/conv2d/kernel:0
[1, 1, 512, 512] -0.189804494 DarkRes_4_csp_connect/conv_bn_1/conv2d_1/kernel:0
[3, 3, 512, 1024] -1.76484275 DarkRes_5_csp_down/conv_bn/conv2d/kernel:0
[1, 1, 1024, 512] -1.53343856 DarkRes_5_csp_down/conv_bn_1/conv2d_1/kernel:0
[1, 1, 1024, 512] -2.35331535 DarkRes_5_csp_down/conv_bn_2/conv2d_2/kernel:0
[1, 1, 512, 512] -4.42239094 DarkRes_5_0/conv_bn/conv2d/kernel:0
[3, 3, 512, 512] -3.08265352 DarkRes_5_0/conv_bn_1/conv2d_1/kernel:0
[1, 1, 512, 512] 2.74096251 DarkRes_5_1/conv_bn/conv2d/kernel:0
[3, 3, 512, 512] -4.72652054 DarkRes_5_1/conv_bn_1/conv2d_1/kernel:0
[1, 1, 512, 512] -0.610579491 DarkRes_5_2/conv_bn/conv2d/kernel:0
[3, 3, 512, 512] -3.62243271 DarkRes_5_2/conv_bn_1/conv2d_1/kernel:0
[1, 1, 512, 512] 4.9553051 DarkRes_5_3/conv_bn/conv2d/kernel:0
[3, 3, 512, 512] -6.87168407 DarkRes_5_3/conv_bn_1/conv2d_1/kernel:0
[1, 1, 512, 512] -4.78672218 DarkRes_5_csp_connect/conv_bn/conv2d/kernel:0
[1, 1, 1024, 1024] 7.63471 DarkRes_5_csp_connect/conv_bn_1/conv2d_1/kernel:0
[1, 1, 256, 256] 0.734376192 yolo_fpn/dark_route_process_1/csp_route_1/conv_bn_14/conv2d_10/kernel:0
[1, 1, 256, 256] -0.0730851591 yolo_fpn/dark_route_process_1/csp_route_1/conv_bn_15/conv2d_11/kernel:0
[3, 3, 256, 256] -4.08954525 yolo_fpn/dark_route_process_1/conv_bn_10/conv2d_12/kernel:0
[1, 1, 256, 256] 0.102624141 yolo_fpn/dark_route_process_1/conv_bn_11/conv2d_13/kernel:0
[3, 3, 256, 256] -1.88467431 yolo_fpn/dark_route_process_1/conv_bn_12/conv2d_14/kernel:0
[1, 1, 512, 256] -2.18610382 yolo_fpn/dark_route_process_1/conv_bn_13/conv2d_15/kernel:0
[1, 1, 1024, 512] 2.59293675 yolo_fpn/dark_route_process/csp_route/conv_bn_5/conv2d/kernel:0
[1, 1, 1024, 512] 3.02878571 yolo_fpn/dark_route_process/csp_route/conv_bn_6/conv2d_1/kernel:0
[3, 3, 512, 512] 4.63219786 yolo_fpn/dark_route_process/conv_bn/conv2d_2/kernel:0
[1, 1, 512, 512] 4.26780701 yolo_fpn/dark_route_process/conv_bn_1/conv2d_3/kernel:0
[1, 1, 2048, 512] -15.6991854 yolo_fpn/dark_route_process/conv_bn_2/conv2d_4/kernel:0
[3, 3, 512, 512] -4.04432106 yolo_fpn/dark_route_process/conv_bn_3/conv2d_5/kernel:0
[1, 1, 1024, 512] -0.0659844279 yolo_fpn/dark_route_process/conv_bn_4/conv2d_6/kernel:0
[1, 1, 256, 128] 0.0889837816 yolo_fpn/path_aggregation_block_1/conv_bn_16/conv2d_16/kernel:0
[1, 1, 256, 128] 1.39508247 yolo_fpn/path_aggregation_block_1/conv_bn_17/conv2d_17/kernel:0
[1, 1, 256, 128] 0.604128242 yolo_fpn/path_aggregation_block_1/conv_bn_18/conv2d_18/kernel:0
[1, 1, 512, 256] 1.00228512 yolo_fpn/path_aggregation_block/conv_bn_7/conv2d_7/kernel:0
[1, 1, 512, 256] 0.259082377 yolo_fpn/path_aggregation_block/conv_bn_8/conv2d_8/kernel:0
[1, 1, 512, 256] 0.46298492 yolo_fpn/path_aggregation_block/conv_bn_9/conv2d_9/kernel:0
[1, 1, 128, 128] 0.147208244 yolo_pan/dark_route_process/csp_route/conv_bn_5/conv2d/kernel:0
[1, 1, 128, 128] -0.139908165 yolo_pan/dark_route_process/csp_route/conv_bn_6/conv2d_1/kernel:0
[3, 3, 128, 128] -0.494007438 yolo_pan/dark_route_process/conv_bn/conv2d_2/kernel:0
[1, 1, 128, 128] -0.323648214 yolo_pan/dark_route_process/conv_bn_1/conv2d_3/kernel:0
[3, 3, 128, 128] 0.645933151 yolo_pan/dark_route_process/conv_bn_2/conv2d_4/kernel:0
[1, 1, 256, 128] 0.213581711 yolo_pan/dark_route_process/conv_bn_3/conv2d_5/kernel:0
[3, 3, 128, 256] 1.11997688 yolo_pan/dark_route_process/conv_bn_4/conv2d_6/kernel:0
[1, 1, 256, 256] -1.443645 yolo_pan/dark_route_process_1/csp_route_1/conv_bn_14/conv2d_9/kernel:0
[1, 1, 256, 256] -0.0863174945 yolo_pan/dark_route_process_1/csp_route_1/conv_bn_15/conv2d_10/kernel:0
[3, 3, 256, 256] -4.83727264 yolo_pan/dark_route_process_1/conv_bn_9/conv2d_11/kernel:0
[1, 1, 256, 256] -1.19361079 yolo_pan/dark_route_process_1/conv_bn_10/conv2d_12/kernel:0
[3, 3, 256, 256] -4.4570446 yolo_pan/dark_route_process_1/conv_bn_11/conv2d_13/kernel:0
[1, 1, 512, 256] 1.49443066 yolo_pan/dark_route_process_1/conv_bn_12/conv2d_14/kernel:0
[3, 3, 256, 512] -14.6770782 yolo_pan/dark_route_process_1/conv_bn_13/conv2d_15/kernel:0
[1, 1, 512, 512] -0.864721894 yolo_pan/dark_route_process_2/csp_route_2/conv_bn_23/conv2d_18/kernel:0
[1, 1, 512, 512] 0.732408464 yolo_pan/dark_route_process_2/csp_route_2/conv_bn_24/conv2d_19/kernel:0
[3, 3, 512, 512] 1.4432199 yolo_pan/dark_route_process_2/conv_bn_18/conv2d_20/kernel:0
[1, 1, 512, 512] 0.815702558 yolo_pan/dark_route_process_2/conv_bn_19/conv2d_21/kernel:0
[3, 3, 512, 512] 2.00561905 yolo_pan/dark_route_process_2/conv_bn_20/conv2d_22/kernel:0
[1, 1, 1024, 512] -2.61495829 yolo_pan/dark_route_process_2/conv_bn_21/conv2d_23/kernel:0
[3, 3, 512, 1024] -7.2505064 yolo_pan/dark_route_process_2/conv_bn_22/conv2d_24/kernel:0
[3, 3, 128, 256] -0.411874503 yolo_pan/path_aggregation_block/conv_bn_7/conv2d_7/kernel:0
[1, 1, 512, 256] -0.629113257 yolo_pan/path_aggregation_block/conv_bn_8/conv2d_8/kernel:0
[3, 3, 256, 512] 0.338867 yolo_pan/path_aggregation_block_1/conv_bn_16/conv2d_16/kernel:0
[1, 1, 1024, 512] 2.42805958 yolo_pan/path_aggregation_block_1/conv_bn_17/conv2d_17/kernel:0
[1, 1, 256, 255] 1.21659791 yolo_head/conv_bn/conv2d/kernel:0
[1, 1, 512, 255] -2.01972818 yolo_head/conv_bn_1/conv2d_1/kernel:0
[1, 1, 1024, 255] -11.9534569 yolo_head/conv_bn_2/conv2d_2/kernel:0
[71 72 73] 4 0.0789898112
[3, 3, 3, 32] 0.345925033 ConvBN_0_0/conv2d/kernel:0
[3, 3, 32, 64] 0.409246832 DarkRes_1_residual_down/conv_bn/conv2d/kernel:0
[1, 1, 64, 32] -0.129329532 DarkRes_1_residual_down/conv_bn_1/conv2d_1/kernel:0
[3, 3, 32, 64] 0.181149 DarkRes_1_residual_down/conv_bn_2/conv2d_2/kernel:0
[3, 3, 64, 128] -0.491647333 DarkRes_2_csp_down/conv_bn/conv2d/kernel:0
[1, 1, 128, 64] -0.167877421 DarkRes_2_csp_down/conv_bn_1/conv2d_1/kernel:0
[1, 1, 128, 64] -0.184866264 DarkRes_2_csp_down/conv_bn_2/conv2d_2/kernel:0
[1, 1, 64, 64] -0.043573726 DarkRes_2_0/conv_bn/conv2d/kernel:0
[3, 3, 64, 64] -0.330416262 DarkRes_2_0/conv_bn_1/conv2d_1/kernel:0
[1, 1, 64, 64] 0.106251389 DarkRes_2_1/conv_bn/conv2d/kernel:0
[3, 3, 64, 64] 0.460659683 DarkRes_2_1/conv_bn_1/conv2d_1/kernel:0
[1, 1, 64, 64] 0.065403834 DarkRes_2_csp_connect/conv_bn/conv2d/kernel:0
[1, 1, 128, 128] -0.120417498 DarkRes_2_csp_connect/conv_bn_1/conv2d_1/kernel:0
[3, 3, 128, 256] 0.297874749 DarkRes_3_csp_down/conv_bn/conv2d/kernel:0
[1, 1, 256, 128] 0.0449547619 DarkRes_3_csp_down/conv_bn_1/conv2d_1/kernel:0
[1, 1, 256, 128] -0.0418760665 DarkRes_3_csp_down/conv_bn_2/conv2d_2/kernel:0
[1, 1, 128, 128] -0.00723468699 DarkRes_3_0/conv_bn/conv2d/kernel:0
[3, 3, 128, 128] -0.0628285185 DarkRes_3_0/conv_bn_1/conv2d_1/kernel:0
[1, 1, 128, 128] 0.162255168 DarkRes_3_1/conv_bn/conv2d/kernel:0
[3, 3, 128, 128] -0.0632886738 DarkRes_3_1/conv_bn_1/conv2d_1/kernel:0
[1, 1, 128, 128] -0.0613554567 DarkRes_3_2/conv_bn/conv2d/kernel:0
[3, 3, 128, 128] -0.111256748 DarkRes_3_2/conv_bn_1/conv2d_1/kernel:0
[1, 1, 128, 128] -0.0330794826 DarkRes_3_3/conv_bn/conv2d/kernel:0
[3, 3, 128, 128] -0.192454219 DarkRes_3_3/conv_bn_1/conv2d_1/kernel:0
[1, 1, 128, 128] -0.0818482488 DarkRes_3_4/conv_bn/conv2d/kernel:0
[3, 3, 128, 128] -0.526836872 DarkRes_3_4/conv_bn_1/conv2d_1/kernel:0
[1, 1, 128, 128] -0.00145383179 DarkRes_3_5/conv_bn/conv2d/kernel:0
[3, 3, 128, 128] -0.541220307 DarkRes_3_5/conv_bn_1/conv2d_1/kernel:0
[1, 1, 128, 128] 0.0593675859 DarkRes_3_6/conv_bn/conv2d/kernel:0
[3, 3, 128, 128] -1.07638335 DarkRes_3_6/conv_bn_1/conv2d_1/kernel:0
[1, 1, 128, 128] -0.0857126862 DarkRes_3_7/conv_bn/conv2d/kernel:0
[3, 3, 128, 128] 0.135243475 DarkRes_3_7/conv_bn_1/conv2d_1/kernel:0
[1, 1, 128, 128] -0.00722660869 DarkRes_3_csp_connect/conv_bn/conv2d/kernel:0
[1, 1, 256, 256] 0.446276665 DarkRes_3_csp_connect/conv_bn_1/conv2d_1/kernel:0
[3, 3, 256, 512] 2.25632548 DarkRes_4_csp_down/conv_bn/conv2d/kernel:0
[1, 1, 512, 256] 0.31153959 DarkRes_4_csp_down/conv_bn_1/conv2d_1/kernel:0
[1, 1, 512, 256] 0.265417725 DarkRes_4_csp_down/conv_bn_2/conv2d_2/kernel:0
[1, 1, 256, 256] -0.297817051 DarkRes_4_0/conv_bn/conv2d/kernel:0
[3, 3, 256, 256] -0.141431302 DarkRes_4_0/conv_bn_1/conv2d_1/kernel:0
[1, 1, 256, 256] -0.202679202 DarkRes_4_1/conv_bn/conv2d/kernel:0
[3, 3, 256, 256] 0.187785089 DarkRes_4_1/conv_bn_1/conv2d_1/kernel:0
[1, 1, 256, 256] -0.00910212472 DarkRes_4_2/conv_bn/conv2d/kernel:0
[3, 3, 256, 256] -0.385232091 DarkRes_4_2/conv_bn_1/conv2d_1/kernel:0
[1, 1, 256, 256] 0.273215115 DarkRes_4_3/conv_bn/conv2d/kernel:0
[3, 3, 256, 256] -0.655480742 DarkRes_4_3/conv_bn_1/conv2d_1/kernel:0
[1, 1, 256, 256] -0.0353218541 DarkRes_4_4/conv_bn/conv2d/kernel:0
[3, 3, 256, 256] -0.205819741 DarkRes_4_4/conv_bn_1/conv2d_1/kernel:0
[1, 1, 256, 256] 0.391367197 DarkRes_4_5/conv_bn/conv2d/kernel:0
[3, 3, 256, 256] -0.711877406 DarkRes_4_5/conv_bn_1/conv2d_1/kernel:0
[1, 1, 256, 256] 0.253056705 DarkRes_4_6/conv_bn/conv2d/kernel:0
[3, 3, 256, 256] -0.495676219 DarkRes_4_6/conv_bn_1/conv2d_1/kernel:0
[1, 1, 256, 256] -0.0145989805 DarkRes_4_7/conv_bn/conv2d/kernel:0
[3, 3, 256, 256] 0.447654337 DarkRes_4_7/conv_bn_1/conv2d_1/kernel:0
[1, 1, 256, 256] 0.150229663 DarkRes_4_csp_connect/conv_bn/conv2d/kernel:0
[1, 1, 512, 512] 0.621549368 DarkRes_4_csp_connect/conv_bn_1/conv2d_1/kernel:0
[3, 3, 512, 1024] -4.01065302 DarkRes_5_csp_down/conv_bn/conv2d/kernel:0
[1, 1, 1024, 512] 0.272007048 DarkRes_5_csp_down/conv_bn_1/conv2d_1/kernel:0
[1, 1, 1024, 512] 0.700619102 DarkRes_5_csp_down/conv_bn_2/conv2d_2/kernel:0
[1, 1, 512, 512] -0.238551304 DarkRes_5_0/conv_bn/conv2d/kernel:0
[3, 3, 512, 512] -1.70791423 DarkRes_5_0/conv_bn_1/conv2d_1/kernel:0
[1, 1, 512, 512] -0.0721032172 DarkRes_5_1/conv_bn/conv2d/kernel:0
[3, 3, 512, 512] 0.455667526 DarkRes_5_1/conv_bn_1/conv2d_1/kernel:0
[1, 1, 512, 512] -0.217753619 DarkRes_5_2/conv_bn/conv2d/kernel:0
[3, 3, 512, 512] -0.273889631 DarkRes_5_2/conv_bn_1/conv2d_1/kernel:0
[1, 1, 512, 512] 0.248514533 DarkRes_5_3/conv_bn/conv2d/kernel:0
[3, 3, 512, 512] -0.701943398 DarkRes_5_3/conv_bn_1/conv2d_1/kernel:0
[1, 1, 512, 512] 0.666777074 DarkRes_5_csp_connect/conv_bn/conv2d/kernel:0
[1, 1, 1024, 1024] -1.22217453 DarkRes_5_csp_connect/conv_bn_1/conv2d_1/kernel:0
[1, 1, 256, 256] 0.29371506 yolo_fpn/dark_route_process_1/csp_route_1/conv_bn_14/conv2d_10/kernel:0
[1, 1, 256, 256] 1.03704011 yolo_fpn/dark_route_process_1/csp_route_1/conv_bn_15/conv2d_11/kernel:0
[3, 3, 256, 256] 1.34743762 yolo_fpn/dark_route_process_1/conv_bn_10/conv2d_12/kernel:0
[1, 1, 256, 256] 0.662269056 yolo_fpn/dark_route_process_1/conv_bn_11/conv2d_13/kernel:0
[3, 3, 256, 256] -0.0385307372 yolo_fpn/dark_route_process_1/conv_bn_12/conv2d_14/kernel:0
[1, 1, 512, 256] -0.798333168 yolo_fpn/dark_route_process_1/conv_bn_13/conv2d_15/kernel:0
[1, 1, 1024, 512] 0.0381787047 yolo_fpn/dark_route_process/csp_route/conv_bn_5/conv2d/kernel:0
[1, 1, 1024, 512] -0.55908 yolo_fpn/dark_route_process/csp_route/conv_bn_6/conv2d_1/kernel:0
[3, 3, 512, 512] -1.90111637 yolo_fpn/dark_route_process/conv_bn/conv2d_2/kernel:0
[1, 1, 512, 512] 0.667018771 yolo_fpn/dark_route_process/conv_bn_1/conv2d_3/kernel:0
[1, 1, 2048, 512] -0.828845739 yolo_fpn/dark_route_process/conv_bn_2/conv2d_4/kernel:0
[3, 3, 512, 512] -0.735712528 yolo_fpn/dark_route_process/conv_bn_3/conv2d_5/kernel:0
[1, 1, 1024, 512] -0.749620855 yolo_fpn/dark_route_process/conv_bn_4/conv2d_6/kernel:0
[1, 1, 256, 128] 0.251381934 yolo_fpn/path_aggregation_block_1/conv_bn_16/conv2d_16/kernel:0
[1, 1, 256, 128] 1.03805029 yolo_fpn/path_aggregation_block_1/conv_bn_17/conv2d_17/kernel:0
[1, 1, 256, 128] -0.120583393 yolo_fpn/path_aggregation_block_1/conv_bn_18/conv2d_18/kernel:0
[1, 1, 512, 256] 0.317010105 yolo_fpn/path_aggregation_block/conv_bn_7/conv2d_7/kernel:0
[1, 1, 512, 256] 0.851753533 yolo_fpn/path_aggregation_block/conv_bn_8/conv2d_8/kernel:0
[1, 1, 512, 256] -0.176407278 yolo_fpn/path_aggregation_block/conv_bn_9/conv2d_9/kernel:0
[1, 1, 128, 128] 0.124137983 yolo_pan/dark_route_process/csp_route/conv_bn_5/conv2d/kernel:0
[1, 1, 128, 128] -0.285594344 yolo_pan/dark_route_process/csp_route/conv_bn_6/conv2d_1/kernel:0
[3, 3, 128, 128] 0.177712947 yolo_pan/dark_route_process/conv_bn/conv2d_2/kernel:0
[1, 1, 128, 128] -0.0944227204 yolo_pan/dark_route_process/conv_bn_1/conv2d_3/kernel:0
[3, 3, 128, 128] -0.589499056 yolo_pan/dark_route_process/conv_bn_2/conv2d_4/kernel:0
[1, 1, 256, 128] 0.0720828623 yolo_pan/dark_route_process/conv_bn_3/conv2d_5/kernel:0
[3, 3, 128, 256] 0.800046265 yolo_pan/dark_route_process/conv_bn_4/conv2d_6/kernel:0
[1, 1, 256, 256] -0.572706759 yolo_pan/dark_route_process_1/csp_route_1/conv_bn_14/conv2d_9/kernel:0
[1, 1, 256, 256] -0.65076226 yolo_pan/dark_route_process_1/csp_route_1/conv_bn_15/conv2d_10/kernel:0
[3, 3, 256, 256] -0.605983913 yolo_pan/dark_route_process_1/conv_bn_9/conv2d_11/kernel:0
[1, 1, 256, 256] -0.563425779 yolo_pan/dark_route_process_1/conv_bn_10/conv2d_12/kernel:0
[3, 3, 256, 256] 1.08628631 yolo_pan/dark_route_process_1/conv_bn_11/conv2d_13/kernel:0
[1, 1, 512, 256] 0.109697908 yolo_pan/dark_route_process_1/conv_bn_12/conv2d_14/kernel:0
[3, 3, 256, 512] 0.564419508 yolo_pan/dark_route_process_1/conv_bn_13/conv2d_15/kernel:0
[1, 1, 512, 512] -0.0783395767 yolo_pan/dark_route_process_2/csp_route_2/conv_bn_23/conv2d_18/kernel:0
[1, 1, 512, 512] 0.313898265 yolo_pan/dark_route_process_2/csp_route_2/conv_bn_24/conv2d_19/kernel:0
[3, 3, 512, 512] 0.353764117 yolo_pan/dark_route_process_2/conv_bn_18/conv2d_20/kernel:0
[1, 1, 512, 512] -0.561085165 yolo_pan/dark_route_process_2/conv_bn_19/conv2d_21/kernel:0
[3, 3, 512, 512] 0.805714071 yolo_pan/dark_route_process_2/conv_bn_20/conv2d_22/kernel:0
[1, 1, 1024, 512] -3.18540072 yolo_pan/dark_route_process_2/conv_bn_21/conv2d_23/kernel:0
[3, 3, 512, 1024] 0.387917221 yolo_pan/dark_route_process_2/conv_bn_22/conv2d_24/kernel:0
[3, 3, 128, 256] -0.0755676106 yolo_pan/path_aggregation_block/conv_bn_7/conv2d_7/kernel:0
[1, 1, 512, 256] -0.819360137 yolo_pan/path_aggregation_block/conv_bn_8/conv2d_8/kernel:0
[3, 3, 256, 512] -1.14140344 yolo_pan/path_aggregation_block_1/conv_bn_16/conv2d_16/kernel:0
[1, 1, 1024, 512] -2.16296577 yolo_pan/path_aggregation_block_1/conv_bn_17/conv2d_17/kernel:0
[1, 1, 256, 255] -1.15465724 yolo_head/conv_bn/conv2d/kernel:0
[1, 1, 512, 255] 0.841742039 yolo_head/conv_bn_1/conv2d_1/kernel:0
[1, 1, 1024, 255] -5.38045073 yolo_head/conv_bn_2/conv2d_2/kernel:0
[74 77 78] 5 0.0554383583
[3, 3, 3, 32] 0.689114094 ConvBN_0_0/conv2d/kernel:0
[3, 3, 32, 64] -0.644152105 DarkRes_1_residual_down/conv_bn/conv2d/kernel:0
[1, 1, 64, 32] 0.256306469 DarkRes_1_residual_down/conv_bn_1/conv2d_1/kernel:0
[3, 3, 32, 64] -0.145124197 DarkRes_1_residual_down/conv_bn_2/conv2d_2/kernel:0
[3, 3, 64, 128] 0.262571573 DarkRes_2_csp_down/conv_bn/conv2d/kernel:0
[1, 1, 128, 64] -0.0892862231 DarkRes_2_csp_down/conv_bn_1/conv2d_1/kernel:0
[1, 1, 128, 64] -0.476915538 DarkRes_2_csp_down/conv_bn_2/conv2d_2/kernel:0
[1, 1, 64, 64] 0.0410290137 DarkRes_2_0/conv_bn/conv2d/kernel:0
[3, 3, 64, 64] 0.682300389 DarkRes_2_0/conv_bn_1/conv2d_1/kernel:0
[1, 1, 64, 64] 0.09752924 DarkRes_2_1/conv_bn/conv2d/kernel:0
[3, 3, 64, 64] 1.61462069 DarkRes_2_1/conv_bn_1/conv2d_1/kernel:0
[1, 1, 64, 64] 0.372068465 DarkRes_2_csp_connect/conv_bn/conv2d/kernel:0
[1, 1, 128, 128] 0.364481062 DarkRes_2_csp_connect/conv_bn_1/conv2d_1/kernel:0
[3, 3, 128, 256] -1.3171519 DarkRes_3_csp_down/conv_bn/conv2d/kernel:0
[1, 1, 256, 128] 1.87258554 DarkRes_3_csp_down/conv_bn_1/conv2d_1/kernel:0
[1, 1, 256, 128] 0.161170363 DarkRes_3_csp_down/conv_bn_2/conv2d_2/kernel:0
[1, 1, 128, 128] 0.38118884 DarkRes_3_0/conv_bn/conv2d/kernel:0
[3, 3, 128, 128] 0.128605336 DarkRes_3_0/conv_bn_1/conv2d_1/kernel:0
[1, 1, 128, 128] -0.113944091 DarkRes_3_1/conv_bn/conv2d/kernel:0
[3, 3, 128, 128] 0.288853139 DarkRes_3_1/conv_bn_1/conv2d_1/kernel:0
[1, 1, 128, 128] 0.693131924 DarkRes_3_2/conv_bn/conv2d/kernel:0
[3, 3, 128, 128] -1.31763923 DarkRes_3_2/conv_bn_1/conv2d_1/kernel:0
[1, 1, 128, 128] -0.06467399 DarkRes_3_3/conv_bn/conv2d/kernel:0
[3, 3, 128, 128] -0.386089921 DarkRes_3_3/conv_bn_1/conv2d_1/kernel:0
[1, 1, 128, 128] 0.164194763 DarkRes_3_4/conv_bn/conv2d/kernel:0
[3, 3, 128, 128] -0.0549674295 DarkRes_3_4/conv_bn_1/conv2d_1/kernel:0
[1, 1, 128, 128] -0.310203 DarkRes_3_5/conv_bn/conv2d/kernel:0
[3, 3, 128, 128] -0.974460125 DarkRes_3_5/conv_bn_1/conv2d_1/kernel:0
[1, 1, 128, 128] 0.173047423 DarkRes_3_6/conv_bn/conv2d/kernel:0
[3, 3, 128, 128] 0.206588313 DarkRes_3_6/conv_bn_1/conv2d_1/kernel:0
[1, 1, 128, 128] 0.0547015928 DarkRes_3_7/conv_bn/conv2d/kernel:0
[3, 3, 128, 128] -0.282825381 DarkRes_3_7/conv_bn_1/conv2d_1/kernel:0
[1, 1, 128, 128] 0.1259626 DarkRes_3_csp_connect/conv_bn/conv2d/kernel:0
[1, 1, 256, 256] 2.33090043 DarkRes_3_csp_connect/conv_bn_1/conv2d_1/kernel:0
[3, 3, 256, 512] 4.93260288 DarkRes_4_csp_down/conv_bn/conv2d/kernel:0
[1, 1, 512, 256] 0.321147591 DarkRes_4_csp_down/conv_bn_1/conv2d_1/kernel:0
[1, 1, 512, 256] 0.74387157 DarkRes_4_csp_down/conv_bn_2/conv2d_2/kernel:0
[1, 1, 256, 256] 0.364786 DarkRes_4_0/conv_bn/conv2d/kernel:0
[3, 3, 256, 256] 1.04827178 DarkRes_4_0/conv_bn_1/conv2d_1/kernel:0
[1, 1, 256, 256] -0.574505925 DarkRes_4_1/conv_bn/conv2d/kernel:0
[3, 3, 256, 256] 0.0456423759 DarkRes_4_1/conv_bn_1/conv2d_1/kernel:0
[1, 1, 256, 256] 0.0574017316 DarkRes_4_2/conv_bn/conv2d/kernel:0
[3, 3, 256, 256] 0.848551095 DarkRes_4_2/conv_bn_1/conv2d_1/kernel:0
[1, 1, 256, 256] 0.102188811 DarkRes_4_3/conv_bn/conv2d/kernel:0
[3, 3, 256, 256] -0.114922151 DarkRes_4_3/conv_bn_1/conv2d_1/kernel:0
[1, 1, 256, 256] 0.135688186 DarkRes_4_4/conv_bn/conv2d/kernel:0
[3, 3, 256, 256] -0.754157543 DarkRes_4_4/conv_bn_1/conv2d_1/kernel:0
[1, 1, 256, 256] 0.017023176 DarkRes_4_5/conv_bn/conv2d/kernel:0
[3, 3, 256, 256] 1.45533824 DarkRes_4_5/conv_bn_1/conv2d_1/kernel:0
[1, 1, 256, 256] 0.566697121 DarkRes_4_6/conv_bn/conv2d/kernel:0
[3, 3, 256, 256] -0.0365546048 DarkRes_4_6/conv_bn_1/conv2d_1/kernel:0
[1, 1, 256, 256] -0.0293689817 DarkRes_4_7/conv_bn/conv2d/kernel:0
[3, 3, 256, 256] 2.00089264 DarkRes_4_7/conv_bn_1/conv2d_1/kernel:0
[1, 1, 256, 256] -0.337634027 DarkRes_4_csp_connect/conv_bn/conv2d/kernel:0
[1, 1, 512, 512] -0.202751487 DarkRes_4_csp_connect/conv_bn_1/conv2d_1/kernel:0
[3, 3, 512, 1024] -5.64997339 DarkRes_5_csp_down/conv_bn/conv2d/kernel:0
[1, 1, 1024, 512] 0.190559924 DarkRes_5_csp_down/conv_bn_1/conv2d_1/kernel:0
[1, 1, 1024, 512] 1.71495557 DarkRes_5_csp_down/conv_bn_2/conv2d_2/kernel:0
[1, 1, 512, 512] 0.461430877 DarkRes_5_0/conv_bn/conv2d/kernel:0
[3, 3, 512, 512] -0.358516 DarkRes_5_0/conv_bn_1/conv2d_1/kernel:0
[1, 1, 512, 512] -0.096777156 DarkRes_5_1/conv_bn/conv2d/kernel:0
[3, 3, 512, 512] -1.38610089 DarkRes_5_1/conv_bn_1/conv2d_1/kernel:0
[1, 1, 512, 512] 2.33303499 DarkRes_5_2/conv_bn/conv2d/kernel:0
[3, 3, 512, 512] -0.284464449 DarkRes_5_2/conv_bn_1/conv2d_1/kernel:0
[1, 1, 512, 512] 0.788870454 DarkRes_5_3/conv_bn/conv2d/kernel:0
[3, 3, 512, 512] -5.07445049 DarkRes_5_3/conv_bn_1/conv2d_1/kernel:0
[1, 1, 512, 512] 0.810526669 DarkRes_5_csp_connect/conv_bn/conv2d/kernel:0
[1, 1, 1024, 1024] -0.595804632 DarkRes_5_csp_connect/conv_bn_1/conv2d_1/kernel:0
[1, 1, 256, 256] 0.139449298 yolo_fpn/dark_route_process_1/csp_route_1/conv_bn_14/conv2d_10/kernel:0
[1, 1, 256, 256] -0.0901220143 yolo_fpn/dark_route_process_1/csp_route_1/conv_bn_15/conv2d_11/kernel:0
[3, 3, 256, 256] 4.36567211 yolo_fpn/dark_route_process_1/conv_bn_10/conv2d_12/kernel:0
[1, 1, 256, 256] 0.125564098 yolo_fpn/dark_route_process_1/conv_bn_11/conv2d_13/kernel:0
[3, 3, 256, 256] -2.2682364 yolo_fpn/dark_route_process_1/conv_bn_12/conv2d_14/kernel:0
[1, 1, 512, 256] 0.0858488083 yolo_fpn/dark_route_process_1/conv_bn_13/conv2d_15/kernel:0
[1, 1, 1024, 512] 0.264693886 yolo_fpn/dark_route_process/csp_route/conv_bn_5/conv2d/kernel:0
[1, 1, 1024, 512] -1.56448853 yolo_fpn/dark_route_process/csp_route/conv_bn_6/conv2d_1/kernel:0
[3, 3, 512, 512] -0.630549967 yolo_fpn/dark_route_process/conv_bn/conv2d_2/kernel:0
[1, 1, 512, 512] 1.33634412 yolo_fpn/dark_route_process/conv_bn_1/conv2d_3/kernel:0
[1, 1, 2048, 512] -2.0587976 yolo_fpn/dark_route_process/conv_bn_2/conv2d_4/kernel:0
[3, 3, 512, 512] 3.31126189 yolo_fpn/dark_route_process/conv_bn_3/conv2d_5/kernel:0
[1, 1, 1024, 512] 1.28144681 yolo_fpn/dark_route_process/conv_bn_4/conv2d_6/kernel:0
[1, 1, 256, 128] -0.315014243 yolo_fpn/path_aggregation_block_1/conv_bn_16/conv2d_16/kernel:0
[1, 1, 256, 128] -0.452260047 yolo_fpn/path_aggregation_block_1/conv_bn_17/conv2d_17/kernel:0
[1, 1, 256, 128] -0.248677671 yolo_fpn/path_aggregation_block_1/conv_bn_18/conv2d_18/kernel:0
[1, 1, 512, 256] 1.02332401 yolo_fpn/path_aggregation_block/conv_bn_7/conv2d_7/kernel:0
[1, 1, 512, 256] 2.47253609 yolo_fpn/path_aggregation_block/conv_bn_8/conv2d_8/kernel:0
[1, 1, 512, 256] 0.267365932 yolo_fpn/path_aggregation_block/conv_bn_9/conv2d_9/kernel:0
[1, 1, 128, 128] 0.148555905 yolo_pan/dark_route_process/csp_route/conv_bn_5/conv2d/kernel:0
[1, 1, 128, 128] 0.18074128 yolo_pan/dark_route_process/csp_route/conv_bn_6/conv2d_1/kernel:0
[3, 3, 128, 128] -0.145304739 yolo_pan/dark_route_process/conv_bn/conv2d_2/kernel:0
[1, 1, 128, 128] 0.0102716386 yolo_pan/dark_route_process/conv_bn_1/conv2d_3/kernel:0
[3, 3, 128, 128] -1.51460624 yolo_pan/dark_route_process/conv_bn_2/conv2d_4/kernel:0
[1, 1, 256, 128] -0.177758336 yolo_pan/dark_route_process/conv_bn_3/conv2d_5/kernel:0
[3, 3, 128, 256] -4.11011124 yolo_pan/dark_route_process/conv_bn_4/conv2d_6/kernel:0
[1, 1, 256, 256] -1.3364234 yolo_pan/dark_route_process_1/csp_route_1/conv_bn_14/conv2d_9/kernel:0
[1, 1, 256, 256] 0.432188421 yolo_pan/dark_route_process_1/csp_route_1/conv_bn_15/conv2d_10/kernel:0
[3, 3, 256, 256] 0.96250695 yolo_pan/dark_route_process_1/conv_bn_9/conv2d_11/kernel:0
[1, 1, 256, 256] 0.022718966 yolo_pan/dark_route_process_1/conv_bn_10/conv2d_12/kernel:0
[3, 3, 256, 256] -0.602975428 yolo_pan/dark_route_process_1/conv_bn_11/conv2d_13/kernel:0
[1, 1, 512, 256] -1.05673218 yolo_pan/dark_route_process_1/conv_bn_12/conv2d_14/kernel:0
[3, 3, 256, 512] -7.63353729 yolo_pan/dark_route_process_1/conv_bn_13/conv2d_15/kernel:0
[1, 1, 512, 512] -0.739624381 yolo_pan/dark_route_process_2/csp_route_2/conv_bn_23/conv2d_18/kernel:0
[1, 1, 512, 512] 0.62880981 yolo_pan/dark_route_process_2/csp_route_2/conv_bn_24/conv2d_19/kernel:0
[3, 3, 512, 512] 3.28806257 yolo_pan/dark_route_process_2/conv_bn_18/conv2d_20/kernel:0
[1, 1, 512, 512] -0.538458943 yolo_pan/dark_route_process_2/conv_bn_19/conv2d_21/kernel:0
[3, 3, 512, 512] 0.910996914 yolo_pan/dark_route_process_2/conv_bn_20/conv2d_22/kernel:0
[1, 1, 1024, 512] 0.696385324 yolo_pan/dark_route_process_2/conv_bn_21/conv2d_23/kernel:0
[3, 3, 512, 1024] -16.9681301 yolo_pan/dark_route_process_2/conv_bn_22/conv2d_24/kernel:0
[3, 3, 128, 256] -1.16163075 yolo_pan/path_aggregation_block/conv_bn_7/conv2d_7/kernel:0
[1, 1, 512, 256] 0.13032876 yolo_pan/path_aggregation_block/conv_bn_8/conv2d_8/kernel:0
[3, 3, 256, 512] -1.73727655 yolo_pan/path_aggregation_block_1/conv_bn_16/conv2d_16/kernel:0
[1, 1, 1024, 512] 1.13545132 yolo_pan/path_aggregation_block_1/conv_bn_17/conv2d_17/kernel:0
[1, 1, 256, 255] 0.351303577 yolo_head/conv_bn/conv2d/kernel:0
[1, 1, 512, 255] 9.23954 yolo_head/conv_bn_1/conv2d_1/kernel:0
[1, 1, 1024, 255] 1.17559707 yolo_head/conv_bn_2/conv2d_2/kernel:0
[81 86 89] 6 0.0466351435
[3, 3, 3, 32] -1.21607184 ConvBN_0_0/conv2d/kernel:0
[3, 3, 32, 64] -0.639746606 DarkRes_1_residual_down/conv_bn/conv2d/kernel:0
[1, 1, 64, 32] -0.349602878 DarkRes_1_residual_down/conv_bn_1/conv2d_1/kernel:0
[3, 3, 32, 64] 0.120883822 DarkRes_1_residual_down/conv_bn_2/conv2d_2/kernel:0
[3, 3, 64, 128] 3.43220592 DarkRes_2_csp_down/conv_bn/conv2d/kernel:0
[1, 1, 128, 64] 0.621893644 DarkRes_2_csp_down/conv_bn_1/conv2d_1/kernel:0
[1, 1, 128, 64] 0.238374203 DarkRes_2_csp_down/conv_bn_2/conv2d_2/kernel:0
[1, 1, 64, 64] 0.0793013722 DarkRes_2_0/conv_bn/conv2d/kernel:0
[3, 3, 64, 64] 1.30335045 DarkRes_2_0/conv_bn_1/conv2d_1/kernel:0
[1, 1, 64, 64] 0.356127918 DarkRes_2_1/conv_bn/conv2d/kernel:0
[3, 3, 64, 64] 3.64303589 DarkRes_2_1/conv_bn_1/conv2d_1/kernel:0
[1, 1, 64, 64] 0.479358912 DarkRes_2_csp_connect/conv_bn/conv2d/kernel:0
[1, 1, 128, 128] -0.472653419 DarkRes_2_csp_connect/conv_bn_1/conv2d_1/kernel:0
[3, 3, 128, 256] -1.56484604 DarkRes_3_csp_down/conv_bn/conv2d/kernel:0
[1, 1, 256, 128] -1.59428644 DarkRes_3_csp_down/conv_bn_1/conv2d_1/kernel:0
[1, 1, 256, 128] -0.504159033 DarkRes_3_csp_down/conv_bn_2/conv2d_2/kernel:0
[1, 1, 128, 128] -0.127619147 DarkRes_3_0/conv_bn/conv2d/kernel:0
[3, 3, 128, 128] -0.266246468 DarkRes_3_0/conv_bn_1/conv2d_1/kernel:0
[1, 1, 128, 128] 0.675317347 DarkRes_3_1/conv_bn/conv2d/kernel:0
[3, 3, 128, 128] -4.40565109 DarkRes_3_1/conv_bn_1/conv2d_1/kernel:0
[1, 1, 128, 128] 0.367240906 DarkRes_3_2/conv_bn/conv2d/kernel:0
[3, 3, 128, 128] -2.09851885 DarkRes_3_2/conv_bn_1/conv2d_1/kernel:0
[1, 1, 128, 128] 0.890172303 DarkRes_3_3/conv_bn/conv2d/kernel:0
[3, 3, 128, 128] -3.33141851 DarkRes_3_3/conv_bn_1/conv2d_1/kernel:0
[1, 1, 128, 128] -0.137125313 DarkRes_3_4/conv_bn/conv2d/kernel:0
[3, 3, 128, 128] -0.700759768 DarkRes_3_4/conv_bn_1/conv2d_1/kernel:0
[1, 1, 128, 128] 0.225720435 DarkRes_3_5/conv_bn/conv2d/kernel:0
[3, 3, 128, 128] -0.309508085 DarkRes_3_5/conv_bn_1/conv2d_1/kernel:0
[1, 1, 128, 128] 1.14506316 DarkRes_3_6/conv_bn/conv2d/kernel:0
[3, 3, 128, 128] -0.0668564588 DarkRes_3_6/conv_bn_1/conv2d_1/kernel:0
[1, 1, 128, 128] 0.932216763 DarkRes_3_7/conv_bn/conv2d/kernel:0
[3, 3, 128, 128] 3.24257374 DarkRes_3_7/conv_bn_1/conv2d_1/kernel:0
[1, 1, 128, 128] 1.67739093 DarkRes_3_csp_connect/conv_bn/conv2d/kernel:0
[1, 1, 256, 256] 2.00700712 DarkRes_3_csp_connect/conv_bn_1/conv2d_1/kernel:0
[3, 3, 256, 512] 5.73513889 DarkRes_4_csp_down/conv_bn/conv2d/kernel:0
[1, 1, 512, 256] -0.923837781 DarkRes_4_csp_down/conv_bn_1/conv2d_1/kernel:0
[1, 1, 512, 256] -1.94857788 DarkRes_4_csp_down/conv_bn_2/conv2d_2/kernel:0
[1, 1, 256, 256] 0.439777821 DarkRes_4_0/conv_bn/conv2d/kernel:0
[3, 3, 256, 256] -2.15379858 DarkRes_4_0/conv_bn_1/conv2d_1/kernel:0
[1, 1, 256, 256] 0.97305572 DarkRes_4_1/conv_bn/conv2d/kernel:0
[3, 3, 256, 256] -2.17156172 DarkRes_4_1/conv_bn_1/conv2d_1/kernel:0
[1, 1, 256, 256] 0.621662378 DarkRes_4_2/conv_bn/conv2d/kernel:0
[3, 3, 256, 256] 0.13622579 DarkRes_4_2/conv_bn_1/conv2d_1/kernel:0
[1, 1, 256, 256] -0.472631693 DarkRes_4_3/conv_bn/conv2d/kernel:0
[3, 3, 256, 256] 1.11738372 DarkRes_4_3/conv_bn_1/conv2d_1/kernel:0
[1, 1, 256, 256] 1.28119063 DarkRes_4_4/conv_bn/conv2d/kernel:0
[3, 3, 256, 256] -0.119003206 DarkRes_4_4/conv_bn_1/conv2d_1/kernel:0
[1, 1, 256, 256] 0.0311074853 DarkRes_4_5/conv_bn/conv2d/kernel:0
[3, 3, 256, 256] 2.25921154 DarkRes_4_5/conv_bn_1/conv2d_1/kernel:0
[1, 1, 256, 256] -0.37084651 DarkRes_4_6/conv_bn/conv2d/kernel:0
[3, 3, 256, 256] -1.9188168 DarkRes_4_6/conv_bn_1/conv2d_1/kernel:0
[1, 1, 256, 256] 0.523303449 DarkRes_4_7/conv_bn/conv2d/kernel:0
[3, 3, 256, 256] 0.275095463 DarkRes_4_7/conv_bn_1/conv2d_1/kernel:0
[1, 1, 256, 256] 0.0699348 DarkRes_4_csp_connect/conv_bn/conv2d/kernel:0
[1, 1, 512, 512] 1.32139564 DarkRes_4_csp_connect/conv_bn_1/conv2d_1/kernel:0
[3, 3, 512, 1024] -7.98897505 DarkRes_5_csp_down/conv_bn/conv2d/kernel:0
[1, 1, 1024, 512] 2.77929568 DarkRes_5_csp_down/conv_bn_1/conv2d_1/kernel:0
[1, 1, 1024, 512] -0.0419946462 DarkRes_5_csp_down/conv_bn_2/conv2d_2/kernel:0
[1, 1, 512, 512] 2.40283513 DarkRes_5_0/conv_bn/conv2d/kernel:0
[3, 3, 512, 512] -3.91158485 DarkRes_5_0/conv_bn_1/conv2d_1/kernel:0
[1, 1, 512, 512] 3.06900024 DarkRes_5_1/conv_bn/conv2d/kernel:0
[3, 3, 512, 512] 0.516414523 DarkRes_5_1/conv_bn_1/conv2d_1/kernel:0
[1, 1, 512, 512] -0.810953379 DarkRes_5_2/conv_bn/conv2d/kernel:0
[3, 3, 512, 512] -4.70774031 DarkRes_5_2/conv_bn_1/conv2d_1/kernel:0
[1, 1, 512, 512] -0.746488392 DarkRes_5_3/conv_bn/conv2d/kernel:0
[3, 3, 512, 512] -2.02571249 DarkRes_5_3/conv_bn_1/conv2d_1/kernel:0
[1, 1, 512, 512] 0.192268565 DarkRes_5_csp_connect/conv_bn/conv2d/kernel:0
[1, 1, 1024, 1024] 4.63616943 DarkRes_5_csp_connect/conv_bn_1/conv2d_1/kernel:0
[1, 1, 256, 256] 0.719899535 yolo_fpn/dark_route_process_1/csp_route_1/conv_bn_14/conv2d_10/kernel:0
[1, 1, 256, 256] 0.565058708 yolo_fpn/dark_route_process_1/csp_route_1/conv_bn_15/conv2d_11/kernel:0
[3, 3, 256, 256] 0.187288672 yolo_fpn/dark_route_process_1/conv_bn_10/conv2d_12/kernel:0
[1, 1, 256, 256] 0.943765879 yolo_fpn/dark_route_process_1/conv_bn_11/conv2d_13/kernel:0
[3, 3, 256, 256] 0.773964047 yolo_fpn/dark_route_process_1/conv_bn_12/conv2d_14/kernel:0
[1, 1, 512, 256] -1.83441305 yolo_fpn/dark_route_process_1/conv_bn_13/conv2d_15/kernel:0
[1, 1, 1024, 512] 1.80021894 yolo_fpn/dark_route_process/csp_route/conv_bn_5/conv2d/kernel:0
[1, 1, 1024, 512] 0.396853149 yolo_fpn/dark_route_process/csp_route/conv_bn_6/conv2d_1/kernel:0
[3, 3, 512, 512] -3.1070466 yolo_fpn/dark_route_process/conv_bn/conv2d_2/kernel:0
[1, 1, 512, 512] 3.94447207 yolo_fpn/dark_route_process/conv_bn_1/conv2d_3/kernel:0
[1, 1, 2048, 512] -4.36011553 yolo_fpn/dark_route_process/conv_bn_2/conv2d_4/kernel:0
[3, 3, 512, 512] 3.0047276 yolo_fpn/dark_route_process/conv_bn_3/conv2d_5/kernel:0
[1, 1, 1024, 512] 1.99136 yolo_fpn/dark_route_process/conv_bn_4/conv2d_6/kernel:0
[1, 1, 256, 128] -0.0931123793 yolo_fpn/path_aggregation_block_1/conv_bn_16/conv2d_16/kernel:0
[1, 1, 256, 128] 0.251968563 yolo_fpn/path_aggregation_block_1/conv_bn_17/conv2d_17/kernel:0
[1, 1, 256, 128] -0.839842081 yolo_fpn/path_aggregation_block_1/conv_bn_18/conv2d_18/kernel:0
[1, 1, 512, 256] -0.320558578 yolo_fpn/path_aggregation_block/conv_bn_7/conv2d_7/kernel:0
[1, 1, 512, 256] -0.830896616 yolo_fpn/path_aggregation_block/conv_bn_8/conv2d_8/kernel:0
[1, 1, 512, 256] 1.79085195 yolo_fpn/path_aggregation_block/conv_bn_9/conv2d_9/kernel:0
[1, 1, 128, 128] 1.26941359 yolo_pan/dark_route_process/csp_route/conv_bn_5/conv2d/kernel:0
[1, 1, 128, 128] 0.565165758 yolo_pan/dark_route_process/csp_route/conv_bn_6/conv2d_1/kernel:0
[3, 3, 128, 128] 0.461179137 yolo_pan/dark_route_process/conv_bn/conv2d_2/kernel:0
[1, 1, 128, 128] 0.838667095 yolo_pan/dark_route_process/conv_bn_1/conv2d_3/kernel:0
[3, 3, 128, 128] -0.607988119 yolo_pan/dark_route_process/conv_bn_2/conv2d_4/kernel:0
[1, 1, 256, 128] 0.132415682 yolo_pan/dark_route_process/conv_bn_3/conv2d_5/kernel:0
[3, 3, 128, 256] 0.986343265 yolo_pan/dark_route_process/conv_bn_4/conv2d_6/kernel:0
[1, 1, 256, 256] -0.857379556 yolo_pan/dark_route_process_1/csp_route_1/conv_bn_14/conv2d_9/kernel:0
[1, 1, 256, 256] 0.775272191 yolo_pan/dark_route_process_1/csp_route_1/conv_bn_15/conv2d_10/kernel:0
[3, 3, 256, 256] -0.130791664 yolo_pan/dark_route_process_1/conv_bn_9/conv2d_11/kernel:0
[1, 1, 256, 256] 0.195825219 yolo_pan/dark_route_process_1/conv_bn_10/conv2d_12/kernel:0
[3, 3, 256, 256] -1.0146718 yolo_pan/dark_route_process_1/conv_bn_11/conv2d_13/kernel:0
[1, 1, 512, 256] -1.53684068 yolo_pan/dark_route_process_1/conv_bn_12/conv2d_14/kernel:0
[3, 3, 256, 512] -4.71700621 yolo_pan/dark_route_process_1/conv_bn_13/conv2d_15/kernel:0
[1, 1, 512, 512] 1.80371785 yolo_pan/dark_route_process_2/csp_route_2/conv_bn_23/conv2d_18/kernel:0
[1, 1, 512, 512] 0.117049947 yolo_pan/dark_route_process_2/csp_route_2/conv_bn_24/conv2d_19/kernel:0
[3, 3, 512, 512] 1.67802942 yolo_pan/dark_route_process_2/conv_bn_18/conv2d_20/kernel:0
[1, 1, 512, 512] -0.379777133 yolo_pan/dark_route_process_2/conv_bn_19/conv2d_21/kernel:0
[3, 3, 512, 512] 0.591547191 yolo_pan/dark_route_process_2/conv_bn_20/conv2d_22/kernel:0
[1, 1, 1024, 512] -2.12335086 yolo_pan/dark_route_process_2/conv_bn_21/conv2d_23/kernel:0
[3, 3, 512, 1024] -4.17013359 yolo_pan/dark_route_process_2/conv_bn_22/conv2d_24/kernel:0
[3, 3, 128, 256] 0.821889162 yolo_pan/path_aggregation_block/conv_bn_7/conv2d_7/kernel:0
[1, 1, 512, 256] 0.218277678 yolo_pan/path_aggregation_block/conv_bn_8/conv2d_8/kernel:0
[3, 3, 256, 512] 1.30062485 yolo_pan/path_aggregation_block_1/conv_bn_16/conv2d_16/kernel:0
[1, 1, 1024, 512] 0.31635958 yolo_pan/path_aggregation_block_1/conv_bn_17/conv2d_17/kernel:0
[1, 1, 256, 255] 5.21854401 yolo_head/conv_bn/conv2d/kernel:0
[1, 1, 512, 255] 5.00257206 yolo_head/conv_bn_1/conv2d_1/kernel:0
[1, 1, 1024, 255] 3.10320663 yolo_head/conv_bn_2/conv2d_2/kernel:0
[92 94 109] 7 0.0649519339
[3, 3, 3, 32] -0.0590602085 ConvBN_0_0/conv2d/kernel:0
[3, 3, 32, 64] 1.57434464 DarkRes_1_residual_down/conv_bn/conv2d/kernel:0
[1, 1, 64, 32] -0.0831335485 DarkRes_1_residual_down/conv_bn_1/conv2d_1/kernel:0
[3, 3, 32, 64] -0.163963214 DarkRes_1_residual_down/conv_bn_2/conv2d_2/kernel:0
[3, 3, 64, 128] 0.372115105 DarkRes_2_csp_down/conv_bn/conv2d/kernel:0
[1, 1, 128, 64] -1.1814543 DarkRes_2_csp_down/conv_bn_1/conv2d_1/kernel:0
[1, 1, 128, 64] -0.0879541337 DarkRes_2_csp_down/conv_bn_2/conv2d_2/kernel:0
[1, 1, 64, 64] -0.0625821277 DarkRes_2_0/conv_bn/conv2d/kernel:0
[3, 3, 64, 64] 0.354219556 DarkRes_2_0/conv_bn_1/conv2d_1/kernel:0
[1, 1, 64, 64] -0.0481983274 DarkRes_2_1/conv_bn/conv2d/kernel:0
[3, 3, 64, 64] 0.0739189312 DarkRes_2_1/conv_bn_1/conv2d_1/kernel:0
[1, 1, 64, 64] -0.243857652 DarkRes_2_csp_connect/conv_bn/conv2d/kernel:0
[1, 1, 128, 128] -0.336341918 DarkRes_2_csp_connect/conv_bn_1/conv2d_1/kernel:0
[3, 3, 128, 256] 0.320762932 DarkRes_3_csp_down/conv_bn/conv2d/kernel:0
[1, 1, 256, 128] -0.639305592 DarkRes_3_csp_down/conv_bn_1/conv2d_1/kernel:0
[1, 1, 256, 128] 0.722633123 DarkRes_3_csp_down/conv_bn_2/conv2d_2/kernel:0
[1, 1, 128, 128] -1.56381357 DarkRes_3_0/conv_bn/conv2d/kernel:0
[3, 3, 128, 128] 0.981682777 DarkRes_3_0/conv_bn_1/conv2d_1/kernel:0
[1, 1, 128, 128] -0.536836743 DarkRes_3_1/conv_bn/conv2d/kernel:0
[3, 3, 128, 128] 0.0949018896 DarkRes_3_1/conv_bn_1/conv2d_1/kernel:0
[1, 1, 128, 128] -0.0112511963 DarkRes_3_2/conv_bn/conv2d/kernel:0
[3, 3, 128, 128] 1.24295616 DarkRes_3_2/conv_bn_1/conv2d_1/kernel:0
[1, 1, 128, 128] -0.473597139 DarkRes_3_3/conv_bn/conv2d/kernel:0
[3, 3, 128, 128] -0.146620825 DarkRes_3_3/conv_bn_1/conv2d_1/kernel:0
[1, 1, 128, 128] 0.360148907 DarkRes_3_4/conv_bn/conv2d/kernel:0
[3, 3, 128, 128] 1.08883131 DarkRes_3_4/conv_bn_1/conv2d_1/kernel:0
[1, 1, 128, 128] 0.0696016923 DarkRes_3_5/conv_bn/conv2d/kernel:0
[3, 3, 128, 128] 0.457908511 DarkRes_3_5/conv_bn_1/conv2d_1/kernel:0
[1, 1, 128, 128] 0.303192258 DarkRes_3_6/conv_bn/conv2d/kernel:0
[3, 3, 128, 128] 0.294717938 DarkRes_3_6/conv_bn_1/conv2d_1/kernel:0
[1, 1, 128, 128] -0.0895397589 DarkRes_3_7/conv_bn/conv2d/kernel:0
[3, 3, 128, 128] -1.5760597 DarkRes_3_7/conv_bn_1/conv2d_1/kernel:0
[1, 1, 128, 128] 0.199581936 DarkRes_3_csp_connect/conv_bn/conv2d/kernel:0
[1, 1, 256, 256] -1.38911426 DarkRes_3_csp_connect/conv_bn_1/conv2d_1/kernel:0
[3, 3, 256, 512] -6.35670042 DarkRes_4_csp_down/conv_bn/conv2d/kernel:0
[1, 1, 512, 256] 0.829275608 DarkRes_4_csp_down/conv_bn_1/conv2d_1/kernel:0
[1, 1, 512, 256] -1.50802398 DarkRes_4_csp_down/conv_bn_2/conv2d_2/kernel:0
[1, 1, 256, 256] -0.898830414 DarkRes_4_0/conv_bn/conv2d/kernel:0
[3, 3, 256, 256] 0.175918564 DarkRes_4_0/conv_bn_1/conv2d_1/kernel:0
[1, 1, 256, 256] 1.05986559 DarkRes_4_1/conv_bn/conv2d/kernel:0
[3, 3, 256, 256] 1.12133145 DarkRes_4_1/conv_bn_1/conv2d_1/kernel:0
[1, 1, 256, 256] -0.417579 DarkRes_4_2/conv_bn/conv2d/kernel:0
[3, 3, 256, 256] 1.52924883 DarkRes_4_2/conv_bn_1/conv2d_1/kernel:0
[1, 1, 256, 256] 1.10482967 DarkRes_4_3/conv_bn/conv2d/kernel:0
[3, 3, 256, 256] 1.69728494 DarkRes_4_3/conv_bn_1/conv2d_1/kernel:0
[1, 1, 256, 256] -0.255771607 DarkRes_4_4/conv_bn/conv2d/kernel:0
[3, 3, 256, 256] 2.68329954 DarkRes_4_4/conv_bn_1/conv2d_1/kernel:0
[1, 1, 256, 256] -0.582751155 DarkRes_4_5/conv_bn/conv2d/kernel:0
[3, 3, 256, 256] 0.686281323 DarkRes_4_5/conv_bn_1/conv2d_1/kernel:0
[1, 1, 256, 256] 1.5352242 DarkRes_4_6/conv_bn/conv2d/kernel:0
[3, 3, 256, 256] 0.397818506 DarkRes_4_6/conv_bn_1/conv2d_1/kernel:0
[1, 1, 256, 256] -0.305936962 DarkRes_4_7/conv_bn/conv2d/kernel:0
[3, 3, 256, 256] 1.30916286 DarkRes_4_7/conv_bn_1/conv2d_1/kernel:0
[1, 1, 256, 256] 0.522246301 DarkRes_4_csp_connect/conv_bn/conv2d/kernel:0
[1, 1, 512, 512] 2.38694215 DarkRes_4_csp_connect/conv_bn_1/conv2d_1/kernel:0
[3, 3, 512, 1024] -1.08818626 DarkRes_5_csp_down/conv_bn/conv2d/kernel:0
[1, 1, 1024, 512] -1.76351345 DarkRes_5_csp_down/conv_bn_1/conv2d_1/kernel:0
[1, 1, 1024, 512] -1.15308094 DarkRes_5_csp_down/conv_bn_2/conv2d_2/kernel:0
[1, 1, 512, 512] 2.57289314 DarkRes_5_0/conv_bn/conv2d/kernel:0
[3, 3, 512, 512] 1.13002646 DarkRes_5_0/conv_bn_1/conv2d_1/kernel:0
[1, 1, 512, 512] 1.18851805 DarkRes_5_1/conv_bn/conv2d/kernel:0
[3, 3, 512, 512] -1.89547539 DarkRes_5_1/conv_bn_1/conv2d_1/kernel:0
[1, 1, 512, 512] -0.427171826 DarkRes_5_2/conv_bn/conv2d/kernel:0
[3, 3, 512, 512] -0.0443033576 DarkRes_5_2/conv_bn_1/conv2d_1/kernel:0
[1, 1, 512, 512] 0.738388956 DarkRes_5_3/conv_bn/conv2d/kernel:0
[3, 3, 512, 512] 1.36035347 DarkRes_5_3/conv_bn_1/conv2d_1/kernel:0
[1, 1, 512, 512] -1.0926435 DarkRes_5_csp_connect/conv_bn/conv2d/kernel:0
[1, 1, 1024, 1024] -2.04284143 DarkRes_5_csp_connect/conv_bn_1/conv2d_1/kernel:0
[1, 1, 256, 256] 0.25496307 yolo_fpn/dark_route_process_1/csp_route_1/conv_bn_14/conv2d_10/kernel:0
[1, 1, 256, 256] 0.608109713 yolo_fpn/dark_route_process_1/csp_route_1/conv_bn_15/conv2d_11/kernel:0
[3, 3, 256, 256] 0.144071341 yolo_fpn/dark_route_process_1/conv_bn_10/conv2d_12/kernel:0
[1, 1, 256, 256] 0.421695083 yolo_fpn/dark_route_process_1/conv_bn_11/conv2d_13/kernel:0
[3, 3, 256, 256] -2.21674371 yolo_fpn/dark_route_process_1/conv_bn_12/conv2d_14/kernel:0
[1, 1, 512, 256] 0.733363867 yolo_fpn/dark_route_process_1/conv_bn_13/conv2d_15/kernel:0
[1, 1, 1024, 512] 1.77342129 yolo_fpn/dark_route_process/csp_route/conv_bn_5/conv2d/kernel:0
[1, 1, 1024, 512] -0.500623822 yolo_fpn/dark_route_process/csp_route/conv_bn_6/conv2d_1/kernel:0
[3, 3, 512, 512] 10.6090088 yolo_fpn/dark_route_process/conv_bn/conv2d_2/kernel:0
[1, 1, 512, 512] 1.63331938 yolo_fpn/dark_route_process/conv_bn_1/conv2d_3/kernel:0
[1, 1, 2048, 512] -3.93542671 yolo_fpn/dark_route_process/conv_bn_2/conv2d_4/kernel:0
[3, 3, 512, 512] 4.07269049 yolo_fpn/dark_route_process/conv_bn_3/conv2d_5/kernel:0
[1, 1, 1024, 512] 1.82297885 yolo_fpn/dark_route_process/conv_bn_4/conv2d_6/kernel:0
[1, 1, 256, 128] 0.522675753 yolo_fpn/path_aggregation_block_1/conv_bn_16/conv2d_16/kernel:0
[1, 1, 256, 128] 1.75600028 yolo_fpn/path_aggregation_block_1/conv_bn_17/conv2d_17/kernel:0
[1, 1, 256, 128] 0.425673425 yolo_fpn/path_aggregation_block_1/conv_bn_18/conv2d_18/kernel:0
[1, 1, 512, 256] 0.627422154 yolo_fpn/path_aggregation_block/conv_bn_7/conv2d_7/kernel:0
[1, 1, 512, 256] -1.41209173 yolo_fpn/path_aggregation_block/conv_bn_8/conv2d_8/kernel:0
[1, 1, 512, 256] -0.525836468 yolo_fpn/path_aggregation_block/conv_bn_9/conv2d_9/kernel:0
[1, 1, 128, 128] -0.328408 yolo_pan/dark_route_process/csp_route/conv_bn_5/conv2d/kernel:0
[1, 1, 128, 128] 0.0857198238 yolo_pan/dark_route_process/csp_route/conv_bn_6/conv2d_1/kernel:0
[3, 3, 128, 128] -0.417425185 yolo_pan/dark_route_process/conv_bn/conv2d_2/kernel:0
[1, 1, 128, 128] 0.0452616028 yolo_pan/dark_route_process/conv_bn_1/conv2d_3/kernel:0
[3, 3, 128, 128] 0.974658 yolo_pan/dark_route_process/conv_bn_2/conv2d_4/kernel:0
[1, 1, 256, 128] 0.289825469 yolo_pan/dark_route_process/conv_bn_3/conv2d_5/kernel:0
[3, 3, 128, 256] 1.12020802 yolo_pan/dark_route_process/conv_bn_4/conv2d_6/kernel:0
[1, 1, 256, 256] -0.461329699 yolo_pan/dark_route_process_1/csp_route_1/conv_bn_14/conv2d_9/kernel:0
[1, 1, 256, 256] 0.0900757164 yolo_pan/dark_route_process_1/csp_route_1/conv_bn_15/conv2d_10/kernel:0
[3, 3, 256, 256] -0.0285326168 yolo_pan/dark_route_process_1/conv_bn_9/conv2d_11/kernel:0
[1, 1, 256, 256] 0.303091466 yolo_pan/dark_route_process_1/conv_bn_10/conv2d_12/kernel:0
[3, 3, 256, 256] 1.51509094 yolo_pan/dark_route_process_1/conv_bn_11/conv2d_13/kernel:0
[1, 1, 512, 256] 0.149283886 yolo_pan/dark_route_process_1/conv_bn_12/conv2d_14/kernel:0
[3, 3, 256, 512] -4.39647484 yolo_pan/dark_route_process_1/conv_bn_13/conv2d_15/kernel:0
[1, 1, 512, 512] 0.859640658 yolo_pan/dark_route_process_2/csp_route_2/conv_bn_23/conv2d_18/kernel:0
[1, 1, 512, 512] -1.25618756 yolo_pan/dark_route_process_2/csp_route_2/conv_bn_24/conv2d_19/kernel:0
[3, 3, 512, 512] 1.76677465 yolo_pan/dark_route_process_2/conv_bn_18/conv2d_20/kernel:0
[1, 1, 512, 512] 0.602396369 yolo_pan/dark_route_process_2/conv_bn_19/conv2d_21/kernel:0
[3, 3, 512, 512] 1.98334825 yolo_pan/dark_route_process_2/conv_bn_20/conv2d_22/kernel:0
[1, 1, 1024, 512] 1.10233176 yolo_pan/dark_route_process_2/conv_bn_21/conv2d_23/kernel:0
[3, 3, 512, 1024] 2.10940742 yolo_pan/dark_route_process_2/conv_bn_22/conv2d_24/kernel:0
[3, 3, 128, 256] -0.415792942 yolo_pan/path_aggregation_block/conv_bn_7/conv2d_7/kernel:0
[1, 1, 512, 256] 0.692901492 yolo_pan/path_aggregation_block/conv_bn_8/conv2d_8/kernel:0
[3, 3, 256, 512] 1.16875553 yolo_pan/path_aggregation_block_1/conv_bn_16/conv2d_16/kernel:0
[1, 1, 1024, 512] -0.314043581 yolo_pan/path_aggregation_block_1/conv_bn_17/conv2d_17/kernel:0
[1, 1, 256, 255] -3.30147123 yolo_head/conv_bn/conv2d/kernel:0
[1, 1, 512, 255] -2.7661438 yolo_head/conv_bn_1/conv2d_1/kernel:0
[1, 1, 1024, 255] -2.41057825 yolo_head/conv_bn_2/conv2d_2/kernel:0
[110 113 127] 8 0.15004161
[3, 3, 3, 32] -0.848278821 ConvBN_0_0/conv2d/kernel:0
[3, 3, 32, 64] 0.110738598 DarkRes_1_residual_down/conv_bn/conv2d/kernel:0
[1, 1, 64, 32] -0.0777624771 DarkRes_1_residual_down/conv_bn_1/conv2d_1/kernel:0
[3, 3, 32, 64] -0.363943517 DarkRes_1_residual_down/conv_bn_2/conv2d_2/kernel:0
[3, 3, 64, 128] 2.7202878 DarkRes_2_csp_down/conv_bn/conv2d/kernel:0
[1, 1, 128, 64] 0.784803867 DarkRes_2_csp_down/conv_bn_1/conv2d_1/kernel:0
[1, 1, 128, 64] -0.142542303 DarkRes_2_csp_down/conv_bn_2/conv2d_2/kernel:0
[1, 1, 64, 64] 0.0545094386 DarkRes_2_0/conv_bn/conv2d/kernel:0
[3, 3, 64, 64] -0.041906435 DarkRes_2_0/conv_bn_1/conv2d_1/kernel:0
[1, 1, 64, 64] -0.100666977 DarkRes_2_1/conv_bn/conv2d/kernel:0
[3, 3, 64, 64] -0.149594173 DarkRes_2_1/conv_bn_1/conv2d_1/kernel:0
[1, 1, 64, 64] -0.298321068 DarkRes_2_csp_connect/conv_bn/conv2d/kernel:0
[1, 1, 128, 128] -0.215456545 DarkRes_2_csp_connect/conv_bn_1/conv2d_1/kernel:0
[3, 3, 128, 256] 1.8692838 DarkRes_3_csp_down/conv_bn/conv2d/kernel:0
[1, 1, 256, 128] -0.951017916 DarkRes_3_csp_down/conv_bn_1/conv2d_1/kernel:0
[1, 1, 256, 128] -0.0509745628 DarkRes_3_csp_down/conv_bn_2/conv2d_2/kernel:0
[1, 1, 128, 128] -1.121665 DarkRes_3_0/conv_bn/conv2d/kernel:0
[3, 3, 128, 128] -0.145571873 DarkRes_3_0/conv_bn_1/conv2d_1/kernel:0
[1, 1, 128, 128] 0.686581492 DarkRes_3_1/conv_bn/conv2d/kernel:0
[3, 3, 128, 128] -3.39903283 DarkRes_3_1/conv_bn_1/conv2d_1/kernel:0
[1, 1, 128, 128] -0.294557154 DarkRes_3_2/conv_bn/conv2d/kernel:0
[3, 3, 128, 128] -1.10234439 DarkRes_3_2/conv_bn_1/conv2d_1/kernel:0
[1, 1, 128, 128] 0.105227232 DarkRes_3_3/conv_bn/conv2d/kernel:0
[3, 3, 128, 128] -1.41642594 DarkRes_3_3/conv_bn_1/conv2d_1/kernel:0
[1, 1, 128, 128] 0.610019207 DarkRes_3_4/conv_bn/conv2d/kernel:0
[3, 3, 128, 128] -0.850626647 DarkRes_3_4/conv_bn_1/conv2d_1/kernel:0
[1, 1, 128, 128] 0.814140916 DarkRes_3_5/conv_bn/conv2d/kernel:0
[3, 3, 128, 128] -0.160622984 DarkRes_3_5/conv_bn_1/conv2d_1/kernel:0
[1, 1, 128, 128] -0.28888768 DarkRes_3_6/conv_bn/conv2d/kernel:0
[3, 3, 128, 128] -1.42796588 DarkRes_3_6/conv_bn_1/conv2d_1/kernel:0
[1, 1, 128, 128] 0.0493481793 DarkRes_3_7/conv_bn/conv2d/kernel:0
[3, 3, 128, 128] -1.71823859 DarkRes_3_7/conv_bn_1/conv2d_1/kernel:0
[1, 1, 128, 128] 0.781459928 DarkRes_3_csp_connect/conv_bn/conv2d/kernel:0
[1, 1, 256, 256] 3.04440498 DarkRes_3_csp_connect/conv_bn_1/conv2d_1/kernel:0
[3, 3, 256, 512] 0.0401548147 DarkRes_4_csp_down/conv_bn/conv2d/kernel:0
[1, 1, 512, 256] -0.977962732 DarkRes_4_csp_down/conv_bn_1/conv2d_1/kernel:0
[1, 1, 512, 256] 0.951681435 DarkRes_4_csp_down/conv_bn_2/conv2d_2/kernel:0
[1, 1, 256, 256] -1.56283903 DarkRes_4_0/conv_bn/conv2d/kernel:0
[3, 3, 256, 256] 2.01694512 DarkRes_4_0/conv_bn_1/conv2d_1/kernel:0
[1, 1, 256, 256] -0.559512377 DarkRes_4_1/conv_bn/conv2d/kernel:0
[3, 3, 256, 256] 0.720640421 DarkRes_4_1/conv_bn_1/conv2d_1/kernel:0
[1, 1, 256, 256] 0.554473698 DarkRes_4_2/conv_bn/conv2d/kernel:0
[3, 3, 256, 256] -0.488692582 DarkRes_4_2/conv_bn_1/conv2d_1/kernel:0
[1, 1, 256, 256] -0.426681489 DarkRes_4_3/conv_bn/conv2d/kernel:0
[3, 3, 256, 256] -1.11006033 DarkRes_4_3/conv_bn_1/conv2d_1/kernel:0
[1, 1, 256, 256] 0.408582926 DarkRes_4_4/conv_bn/conv2d/kernel:0
[3, 3, 256, 256] -0.0701182038 DarkRes_4_4/conv_bn_1/conv2d_1/kernel:0
[1, 1, 256, 256] 0.298460603 DarkRes_4_5/conv_bn/conv2d/kernel:0
[3, 3, 256, 256] -1.41793668 DarkRes_4_5/conv_bn_1/conv2d_1/kernel:0
[1, 1, 256, 256] 0.197461873 DarkRes_4_6/conv_bn/conv2d/kernel:0
[3, 3, 256, 256] -1.47092521 DarkRes_4_6/conv_bn_1/conv2d_1/kernel:0
[1, 1, 256, 256] 0.724794269 DarkRes_4_7/conv_bn/conv2d/kernel:0
[3, 3, 256, 256] -2.55870771 DarkRes_4_7/conv_bn_1/conv2d_1/kernel:0
[1, 1, 256, 256] 1.62173176 DarkRes_4_csp_connect/conv_bn/conv2d/kernel:0
[1, 1, 512, 512] 0.805604875 DarkRes_4_csp_connect/conv_bn_1/conv2d_1/kernel:0
[3, 3, 512, 1024] -4.36043167 DarkRes_5_csp_down/conv_bn/conv2d/kernel:0
[1, 1, 1024, 512] -1.60306025 DarkRes_5_csp_down/conv_bn_1/conv2d_1/kernel:0
[1, 1, 1024, 512] 2.79487753 DarkRes_5_csp_down/conv_bn_2/conv2d_2/kernel:0
[1, 1, 512, 512] 2.22484779 DarkRes_5_0/conv_bn/conv2d/kernel:0
[3, 3, 512, 512] 3.14119387 DarkRes_5_0/conv_bn_1/conv2d_1/kernel:0
[1, 1, 512, 512] -0.13279818 DarkRes_5_1/conv_bn/conv2d/kernel:0
[3, 3, 512, 512] 3.62996578 DarkRes_5_1/conv_bn_1/conv2d_1/kernel:0
[1, 1, 512, 512] 0.259487927 DarkRes_5_2/conv_bn/conv2d/kernel:0
[3, 3, 512, 512] 1.60077155 DarkRes_5_2/conv_bn_1/conv2d_1/kernel:0
[1, 1, 512, 512] -1.95075059 DarkRes_5_3/conv_bn/conv2d/kernel:0
[3, 3, 512, 512] 5.29598427 DarkRes_5_3/conv_bn_1/conv2d_1/kernel:0
[1, 1, 512, 512] 2.07930589 DarkRes_5_csp_connect/conv_bn/conv2d/kernel:0
[1, 1, 1024, 1024] 3.0038836 DarkRes_5_csp_connect/conv_bn_1/conv2d_1/kernel:0
[1, 1, 256, 256] 0.248533517 yolo_fpn/dark_route_process_1/csp_route_1/conv_bn_14/conv2d_10/kernel:0
[1, 1, 256, 256] -0.177772924 yolo_fpn/dark_route_process_1/csp_route_1/conv_bn_15/conv2d_11/kernel:0
[3, 3, 256, 256] -1.6504873 yolo_fpn/dark_route_process_1/conv_bn_10/conv2d_12/kernel:0
[1, 1, 256, 256] 0.0445951298 yolo_fpn/dark_route_process_1/conv_bn_11/conv2d_13/kernel:0
[3, 3, 256, 256] -4.28021622 yolo_fpn/dark_route_process_1/conv_bn_12/conv2d_14/kernel:0
[1, 1, 512, 256] -1.23911762 yolo_fpn/dark_route_process_1/conv_bn_13/conv2d_15/kernel:0
[1, 1, 1024, 512] -1.48884797 yolo_fpn/dark_route_process/csp_route/conv_bn_5/conv2d/kernel:0
[1, 1, 1024, 512] -1.27996731 yolo_fpn/dark_route_process/csp_route/conv_bn_6/conv2d_1/kernel:0
[3, 3, 512, 512] 0.681810915 yolo_fpn/dark_route_process/conv_bn/conv2d_2/kernel:0
[1, 1, 512, 512] -0.758639216 yolo_fpn/dark_route_process/conv_bn_1/conv2d_3/kernel:0
[1, 1, 2048, 512] -4.92686367 yolo_fpn/dark_route_process/conv_bn_2/conv2d_4/kernel:0
[3, 3, 512, 512] -5.16446733 yolo_fpn/dark_route_process/conv_bn_3/conv2d_5/kernel:0
[1, 1, 1024, 512] 0.465254903 yolo_fpn/dark_route_process/conv_bn_4/conv2d_6/kernel:0
[1, 1, 256, 128] -0.794161439 yolo_fpn/path_aggregation_block_1/conv_bn_16/conv2d_16/kernel:0
[1, 1, 256, 128] 1.2060734 yolo_fpn/path_aggregation_block_1/conv_bn_17/conv2d_17/kernel:0
[1, 1, 256, 128] 0.31079188 yolo_fpn/path_aggregation_block_1/conv_bn_18/conv2d_18/kernel:0
[1, 1, 512, 256] -1.7650733 yolo_fpn/path_aggregation_block/conv_bn_7/conv2d_7/kernel:0
[1, 1, 512, 256] 2.35265899 yolo_fpn/path_aggregation_block/conv_bn_8/conv2d_8/kernel:0
[1, 1, 512, 256] 0.47157976 yolo_fpn/path_aggregation_block/conv_bn_9/conv2d_9/kernel:0
[1, 1, 128, 128] 0.305996597 yolo_pan/dark_route_process/csp_route/conv_bn_5/conv2d/kernel:0
[1, 1, 128, 128] 0.446653485 yolo_pan/dark_route_process/csp_route/conv_bn_6/conv2d_1/kernel:0
[3, 3, 128, 128] 1.91326618 yolo_pan/dark_route_process/conv_bn/conv2d_2/kernel:0
[1, 1, 128, 128] -0.044484973 yolo_pan/dark_route_process/conv_bn_1/conv2d_3/kernel:0
[3, 3, 128, 128] -0.414644122 yolo_pan/dark_route_process/conv_bn_2/conv2d_4/kernel:0
[1, 1, 256, 128] 0.328874 yolo_pan/dark_route_process/conv_bn_3/conv2d_5/kernel:0
[3, 3, 128, 256] -0.160438716 yolo_pan/dark_route_process/conv_bn_4/conv2d_6/kernel:0
[1, 1, 256, 256] 0.298977494 yolo_pan/dark_route_process_1/csp_route_1/conv_bn_14/conv2d_9/kernel:0
[1, 1, 256, 256] -0.467450142 yolo_pan/dark_route_process_1/csp_route_1/conv_bn_15/conv2d_10/kernel:0
[3, 3, 256, 256] -1.90066838 yolo_pan/dark_route_process_1/conv_bn_9/conv2d_11/kernel:0
[1, 1, 256, 256] -0.718699098 yolo_pan/dark_route_process_1/conv_bn_10/conv2d_12/kernel:0
[3, 3, 256, 256] -1.27533591 yolo_pan/dark_route_process_1/conv_bn_11/conv2d_13/kernel:0
[1, 1, 512, 256] -2.55715418 yolo_pan/dark_route_process_1/conv_bn_12/conv2d_14/kernel:0
[3, 3, 256, 512] 5.14519 yolo_pan/dark_route_process_1/conv_bn_13/conv2d_15/kernel:0
[1, 1, 512, 512] -0.8557235 yolo_pan/dark_route_process_2/csp_route_2/conv_bn_23/conv2d_18/kernel:0
[1, 1, 512, 512] 1.36663306 yolo_pan/dark_route_process_2/csp_route_2/conv_bn_24/conv2d_19/kernel:0
[3, 3, 512, 512] 0.154855698 yolo_pan/dark_route_process_2/conv_bn_18/conv2d_20/kernel:0
[1, 1, 512, 512] 0.558637559 yolo_pan/dark_route_process_2/conv_bn_19/conv2d_21/kernel:0
[3, 3, 512, 512] -0.833477676 yolo_pan/dark_route_process_2/conv_bn_20/conv2d_22/kernel:0
[1, 1, 1024, 512] -4.64333725 yolo_pan/dark_route_process_2/conv_bn_21/conv2d_23/kernel:0
[3, 3, 512, 1024] -0.172053576 yolo_pan/dark_route_process_2/conv_bn_22/conv2d_24/kernel:0
[3, 3, 128, 256] 0.443390131 yolo_pan/path_aggregation_block/conv_bn_7/conv2d_7/kernel:0
[1, 1, 512, 256] -2.29268932 yolo_pan/path_aggregation_block/conv_bn_8/conv2d_8/kernel:0
[3, 3, 256, 512] -2.59518 yolo_pan/path_aggregation_block_1/conv_bn_16/conv2d_16/kernel:0
[1, 1, 1024, 512] -2.86963034 yolo_pan/path_aggregation_block_1/conv_bn_17/conv2d_17/kernel:0
[1, 1, 256, 255] -2.03363729 yolo_head/conv_bn/conv2d/kernel:0
[1, 1, 512, 255] 5.23178768 yolo_head/conv_bn_1/conv2d_1/kernel:0
[1, 1, 1024, 255] 6.56385899 yolo_head/conv_bn_2/conv2d_2/kernel:0
[133 136 138] 9 0.0721225
[3, 3, 3, 32] -2.98817277 ConvBN_0_0/conv2d/kernel:0
[3, 3, 32, 64] 0.718156397 DarkRes_1_residual_down/conv_bn/conv2d/kernel:0
[1, 1, 64, 32] 0.61870122 DarkRes_1_residual_down/conv_bn_1/conv2d_1/kernel:0
[3, 3, 32, 64] 1.66248906 DarkRes_1_residual_down/conv_bn_2/conv2d_2/kernel:0
[3, 3, 64, 128] -2.29972506 DarkRes_2_csp_down/conv_bn/conv2d/kernel:0
[1, 1, 128, 64] -0.331402689 DarkRes_2_csp_down/conv_bn_1/conv2d_1/kernel:0
[1, 1, 128, 64] 0.360236734 DarkRes_2_csp_down/conv_bn_2/conv2d_2/kernel:0
[1, 1, 64, 64] 0.418443531 DarkRes_2_0/conv_bn/conv2d/kernel:0
[3, 3, 64, 64] 0.562511206 DarkRes_2_0/conv_bn_1/conv2d_1/kernel:0
[1, 1, 64, 64] -0.197373882 DarkRes_2_1/conv_bn/conv2d/kernel:0
[3, 3, 64, 64] 2.34306502 DarkRes_2_1/conv_bn_1/conv2d_1/kernel:0
[1, 1, 64, 64] -0.524261236 DarkRes_2_csp_connect/conv_bn/conv2d/kernel:0
[1, 1, 128, 128] -1.2466166 DarkRes_2_csp_connect/conv_bn_1/conv2d_1/kernel:0
[3, 3, 128, 256] 5.94501591 DarkRes_3_csp_down/conv_bn/conv2d/kernel:0
[1, 1, 256, 128] 0.680386305 DarkRes_3_csp_down/conv_bn_1/conv2d_1/kernel:0
[1, 1, 256, 128] -0.8708812 DarkRes_3_csp_down/conv_bn_2/conv2d_2/kernel:0
[1, 1, 128, 128] 0.76398766 DarkRes_3_0/conv_bn/conv2d/kernel:0
[3, 3, 128, 128] 0.898165584 DarkRes_3_0/conv_bn_1/conv2d_1/kernel:0
[1, 1, 128, 128] 1.07597697 DarkRes_3_1/conv_bn/conv2d/kernel:0
[3, 3, 128, 128] -0.429216594 DarkRes_3_1/conv_bn_1/conv2d_1/kernel:0
[1, 1, 128, 128] -0.341976166 DarkRes_3_2/conv_bn/conv2d/kernel:0
[3, 3, 128, 128] 0.337279797 DarkRes_3_2/conv_bn_1/conv2d_1/kernel:0
[1, 1, 128, 128] -0.133328363 DarkRes_3_3/conv_bn/conv2d/kernel:0
[3, 3, 128, 128] -0.260538727 DarkRes_3_3/conv_bn_1/conv2d_1/kernel:0
[1, 1, 128, 128] -0.0874244049 DarkRes_3_4/conv_bn/conv2d/kernel:0
[3, 3, 128, 128] -0.732326865 DarkRes_3_4/conv_bn_1/conv2d_1/kernel:0
[1, 1, 128, 128] 0.709135532 DarkRes_3_5/conv_bn/conv2d/kernel:0
[3, 3, 128, 128] 2.60246491 DarkRes_3_5/conv_bn_1/conv2d_1/kernel:0
[1, 1, 128, 128] 0.105269805 DarkRes_3_6/conv_bn/conv2d/kernel:0
[3, 3, 128, 128] -0.435535192 DarkRes_3_6/conv_bn_1/conv2d_1/kernel:0
[1, 1, 128, 128] 0.980099916 DarkRes_3_7/conv_bn/conv2d/kernel:0
[3, 3, 128, 128] 0.0832539946 DarkRes_3_7/conv_bn_1/conv2d_1/kernel:0
[1, 1, 128, 128] -0.111947745 DarkRes_3_csp_connect/conv_bn/conv2d/kernel:0
[1, 1, 256, 256] 2.03129816 DarkRes_3_csp_connect/conv_bn_1/conv2d_1/kernel:0
[3, 3, 256, 512] 5.34962368 DarkRes_4_csp_down/conv_bn/conv2d/kernel:0
[1, 1, 512, 256] 0.600254536 DarkRes_4_csp_down/conv_bn_1/conv2d_1/kernel:0
[1, 1, 512, 256] 0.665486932 DarkRes_4_csp_down/conv_bn_2/conv2d_2/kernel:0
[1, 1, 256, 256] 0.435623586 DarkRes_4_0/conv_bn/conv2d/kernel:0
[3, 3, 256, 256] -1.51990783 DarkRes_4_0/conv_bn_1/conv2d_1/kernel:0
[1, 1, 256, 256] -1.58750963 DarkRes_4_1/conv_bn/conv2d/kernel:0
[3, 3, 256, 256] -0.181860745 DarkRes_4_1/conv_bn_1/conv2d_1/kernel:0
[1, 1, 256, 256] -0.140953317 DarkRes_4_2/conv_bn/conv2d/kernel:0
[3, 3, 256, 256] 1.48368716 DarkRes_4_2/conv_bn_1/conv2d_1/kernel:0
[1, 1, 256, 256] 0.459412724 DarkRes_4_3/conv_bn/conv2d/kernel:0
[3, 3, 256, 256] 5.56315899 DarkRes_4_3/conv_bn_1/conv2d_1/kernel:0
[1, 1, 256, 256] -0.424225867 DarkRes_4_4/conv_bn/conv2d/kernel:0
[3, 3, 256, 256] 4.00035334 DarkRes_4_4/conv_bn_1/conv2d_1/kernel:0
[1, 1, 256, 256] -0.606216848 DarkRes_4_5/conv_bn/conv2d/kernel:0
[3, 3, 256, 256] 1.75820279 DarkRes_4_5/conv_bn_1/conv2d_1/kernel:0
[1, 1, 256, 256] -0.212766856 DarkRes_4_6/conv_bn/conv2d/kernel:0
[3, 3, 256, 256] -2.26767588 DarkRes_4_6/conv_bn_1/conv2d_1/kernel:0
[1, 1, 256, 256] 1.49261951 DarkRes_4_7/conv_bn/conv2d/kernel:0
[3, 3, 256, 256] 0.273682535 DarkRes_4_7/conv_bn_1/conv2d_1/kernel:0
[1, 1, 256, 256] -0.708346844 DarkRes_4_csp_connect/conv_bn/conv2d/kernel:0
[1, 1, 512, 512] 3.56461143 DarkRes_4_csp_connect/conv_bn_1/conv2d_1/kernel:0
[3, 3, 512, 1024] -9.91335583 DarkRes_5_csp_down/conv_bn/conv2d/kernel:0
[1, 1, 1024, 512] -2.77836657 DarkRes_5_csp_down/conv_bn_1/conv2d_1/kernel:0
[1, 1, 1024, 512] 4.10914612 DarkRes_5_csp_down/conv_bn_2/conv2d_2/kernel:0
[1, 1, 512, 512] 5.61893 DarkRes_5_0/conv_bn/conv2d/kernel:0
[3, 3, 512, 512] 0.579193473 DarkRes_5_0/conv_bn_1/conv2d_1/kernel:0
[1, 1, 512, 512] 1.02383316 DarkRes_5_1/conv_bn/conv2d/kernel:0
[3, 3, 512, 512] 1.73440111 DarkRes_5_1/conv_bn_1/conv2d_1/kernel:0
[1, 1, 512, 512] 1.53370857 DarkRes_5_2/conv_bn/conv2d/kernel:0
[3, 3, 512, 512] -2.98266816 DarkRes_5_2/conv_bn_1/conv2d_1/kernel:0
[1, 1, 512, 512] -1.41894639 DarkRes_5_3/conv_bn/conv2d/kernel:0
[3, 3, 512, 512] 1.36058295 DarkRes_5_3/conv_bn_1/conv2d_1/kernel:0
[1, 1, 512, 512] 1.44261646 DarkRes_5_csp_connect/conv_bn/conv2d/kernel:0
[1, 1, 1024, 1024] 7.78685904 DarkRes_5_csp_connect/conv_bn_1/conv2d_1/kernel:0
[1, 1, 256, 256] 0.893137455 yolo_fpn/dark_route_process_1/csp_route_1/conv_bn_14/conv2d_10/kernel:0
[1, 1, 256, 256] 0.796196699 yolo_fpn/dark_route_process_1/csp_route_1/conv_bn_15/conv2d_11/kernel:0
[3, 3, 256, 256] 0.731577635 yolo_fpn/dark_route_process_1/conv_bn_10/conv2d_12/kernel:0
[1, 1, 256, 256] 0.452482224 yolo_fpn/dark_route_process_1/conv_bn_11/conv2d_13/kernel:0
[3, 3, 256, 256] 0.612392962 yolo_fpn/dark_route_process_1/conv_bn_12/conv2d_14/kernel:0
[1, 1, 512, 256] -0.779203534 yolo_fpn/dark_route_process_1/conv_bn_13/conv2d_15/kernel:0
[1, 1, 1024, 512] -0.200357586 yolo_fpn/dark_route_process/csp_route/conv_bn_5/conv2d/kernel:0
[1, 1, 1024, 512] 2.71530771 yolo_fpn/dark_route_process/csp_route/conv_bn_6/conv2d_1/kernel:0
[3, 3, 512, 512] 4.88937426 yolo_fpn/dark_route_process/conv_bn/conv2d_2/kernel:0
[1, 1, 512, 512] 1.40525329 yolo_fpn/dark_route_process/conv_bn_1/conv2d_3/kernel:0
[1, 1, 2048, 512] -17.394125 yolo_fpn/dark_route_process/conv_bn_2/conv2d_4/kernel:0
[3, 3, 512, 512] 1.05385268 yolo_fpn/dark_route_process/conv_bn_3/conv2d_5/kernel:0
[1, 1, 1024, 512] -2.81726027 yolo_fpn/dark_route_process/conv_bn_4/conv2d_6/kernel:0
[1, 1, 256, 128] -0.0741424859 yolo_fpn/path_aggregation_block_1/conv_bn_16/conv2d_16/kernel:0
[1, 1, 256, 128] -0.0142420381 yolo_fpn/path_aggregation_block_1/conv_bn_17/conv2d_17/kernel:0
[1, 1, 256, 128] 0.354476303 yolo_fpn/path_aggregation_block_1/conv_bn_18/conv2d_18/kernel:0
[1, 1, 512, 256] -0.691966474 yolo_fpn/path_aggregation_block/conv_bn_7/conv2d_7/kernel:0
[1, 1, 512, 256] -1.65602267 yolo_fpn/path_aggregation_block/conv_bn_8/conv2d_8/kernel:0
[1, 1, 512, 256] 0.613872051 yolo_fpn/path_aggregation_block/conv_bn_9/conv2d_9/kernel:0
[1, 1, 128, 128] 0.741360188 yolo_pan/dark_route_process/csp_route/conv_bn_5/conv2d/kernel:0
[1, 1, 128, 128] 0.250682801 yolo_pan/dark_route_process/csp_route/conv_bn_6/conv2d_1/kernel:0
[3, 3, 128, 128] 0.635796726 yolo_pan/dark_route_process/conv_bn/conv2d_2/kernel:0
[1, 1, 128, 128] 0.366472721 yolo_pan/dark_route_process/conv_bn_1/conv2d_3/kernel:0
[3, 3, 128, 128] 1.33733606 yolo_pan/dark_route_process/conv_bn_2/conv2d_4/kernel:0
[1, 1, 256, 128] 0.253437817 yolo_pan/dark_route_process/conv_bn_3/conv2d_5/kernel:0
[3, 3, 128, 256] 0.241286844 yolo_pan/dark_route_process/conv_bn_4/conv2d_6/kernel:0
[1, 1, 256, 256] 0.714286685 yolo_pan/dark_route_process_1/csp_route_1/conv_bn_14/conv2d_9/kernel:0
[1, 1, 256, 256] -0.268909752 yolo_pan/dark_route_process_1/csp_route_1/conv_bn_15/conv2d_10/kernel:0
[3, 3, 256, 256] 2.22527981 yolo_pan/dark_route_process_1/conv_bn_9/conv2d_11/kernel:0
[1, 1, 256, 256] -0.00170566142 yolo_pan/dark_route_process_1/conv_bn_10/conv2d_12/kernel:0
[3, 3, 256, 256] 3.25254202 yolo_pan/dark_route_process_1/conv_bn_11/conv2d_13/kernel:0
[1, 1, 512, 256] 1.71946907 yolo_pan/dark_route_process_1/conv_bn_12/conv2d_14/kernel:0
[3, 3, 256, 512] -4.61964846 yolo_pan/dark_route_process_1/conv_bn_13/conv2d_15/kernel:0
[1, 1, 512, 512] 0.595139 yolo_pan/dark_route_process_2/csp_route_2/conv_bn_23/conv2d_18/kernel:0
[1, 1, 512, 512] 1.7443676 yolo_pan/dark_route_process_2/csp_route_2/conv_bn_24/conv2d_19/kernel:0
[3, 3, 512, 512] 0.496757269 yolo_pan/dark_route_process_2/conv_bn_18/conv2d_20/kernel:0
[1, 1, 512, 512] 0.595171094 yolo_pan/dark_route_process_2/conv_bn_19/conv2d_21/kernel:0
[3, 3, 512, 512] 5.51791048 yolo_pan/dark_route_process_2/conv_bn_20/conv2d_22/kernel:0
[1, 1, 1024, 512] 2.54468727 yolo_pan/dark_route_process_2/conv_bn_21/conv2d_23/kernel:0
[3, 3, 512, 1024] -12.4195595 yolo_pan/dark_route_process_2/conv_bn_22/conv2d_24/kernel:0
[3, 3, 128, 256] 0.214595944 yolo_pan/path_aggregation_block/conv_bn_7/conv2d_7/kernel:0
[1, 1, 512, 256] 3.04884124 yolo_pan/path_aggregation_block/conv_bn_8/conv2d_8/kernel:0
[3, 3, 256, 512] 1.96123314 yolo_pan/path_aggregation_block_1/conv_bn_16/conv2d_16/kernel:0
[1, 1, 1024, 512] 2.2258637 yolo_pan/path_aggregation_block_1/conv_bn_17/conv2d_17/kernel:0
[1, 1, 256, 255] 0.304364324 yolo_head/conv_bn/conv2d/kernel:0
[1, 1, 512, 255] 0.0542245209 yolo_head/conv_bn_1/conv2d_1/kernel:0
[1, 1, 1024, 255] 3.02194929 yolo_head/conv_bn_2/conv2d_2/kernel:0
[142 143 144] 10 0.0904728547

conv_bn_11 256.0 (1, 1) convCFG(_type='convolutional', w=32, h=32, c=256, size=1, stride=1, pad=0, filters=256)
conv_bn_12 256.0 (3, 3) convCFG(_type='convolutional', w=32, h=32, c=256, size=3, stride=1, pad=1, filters=256)
conv_bn_13 256.0 (1, 1) convCFG(_type='convolutional', w=32, h=32, c=512, size=1, stride=1, pad=0, filters=256)
…
