…
worker_hosts': None, 'task_index': -1, 'all_reduce_alg': None, 'num_packs': 1, 'mixed_precision_dtype': 'bfloat16', 'loss_scale': None, 'run_eagerly': False, 'batchnorm_spatial_persistent': False, 'num_cores_per_replica': 1, 'default_shard_dim': -1}}
Model: "csp-large"
__________________________________________________________________________________________________
Layer (type)                    Output Shape         Param #     Connected to                     
==================================================================================================
input_1 (InputLayer)            [(None, 256, 256, 3) 0                                            
__________________________________________________________________________________________________
ConvBN_0_0 (ConvBN)             (None, 256, 256, 32) 992         input_1[0][0]                    
__________________________________________________________________________________________________
DarkRes_1_csp_down (CSPRoute)   ((None, 128, 128, 64 27392       ConvBN_0_0[0][0]                 
__________________________________________________________________________________________________
DarkRes_1_0 (DarkResidual)      (None, 128, 128, 64) 20864       DarkRes_1_csp_down[0][0]         
__________________________________________________________________________________________________
DarkRes_1_csp_connect (CSPConne (None, 128, 128, 64) 12800       DarkRes_1_0[0][0]                
                                                                 DarkRes_1_csp_down[0][1]         
__________________________________________________________________________________________________
DarkRes_2_csp_down (CSPRoute)   ((None, 64, 64, 64), 91136       DarkRes_1_csp_connect[0][0]      
__________________________________________________________________________________________________
DarkRes_2_0 (DarkResidual)      (None, 64, 64, 64)   41472       DarkRes_2_csp_down[0][0]         
__________________________________________________________________________________________________
DarkRes_2_1 (DarkResidual)      (None, 64, 64, 64)   41472       DarkRes_2_0[0][0]                
__________________________________________________________________________________________________
DarkRes_2_2 (DarkResidual)      (None, 64, 64, 64)   41472       DarkRes_2_1[0][0]                
__________________________________________________________________________________________________
DarkRes_2_csp_connect (CSPConne (None, 64, 64, 128)  21248       DarkRes_2_2[0][0]                
                                                                 DarkRes_2_csp_down[0][1]         
__________________________________________________________________________________________________
DarkRes_3_csp_down (CSPRoute)   ((None, 32, 32, 128) 362496      DarkRes_2_csp_connect[0][0]      
__________________________________________________________________________________________________
DarkRes_3_0 (DarkResidual)      (None, 32, 32, 128)  164864      DarkRes_3_csp_down[0][0]         
__________________________________________________________________________________________________
DarkRes_3_1 (DarkResidual)      (None, 32, 32, 128)  164864      DarkRes_3_0[0][0]                
__________________________________________________________________________________________________
DarkRes_3_2 (DarkResidual)      (None, 32, 32, 128)  164864      DarkRes_3_1[0][0]                
__________________________________________________________________________________________________
DarkRes_3_3 (DarkResidual)      (None, 32, 32, 128)  164864      DarkRes_3_2[0][0]                
__________________________________________________________________________________________________
DarkRes_3_4 (DarkResidual)      (None, 32, 32, 128)  164864      DarkRes_3_3[0][0]                
__________________________________________________________________________________________________
DarkRes_3_5 (DarkResidual)      (None, 32, 32, 128)  164864      DarkRes_3_4[0][0]                
__________________________________________________________________________________________________
DarkRes_3_6 (DarkResidual)      (None, 32, 32, 128)  164864      DarkRes_3_5[0][0]                
__________________________________________________________________________________________________
DarkRes_3_7 (DarkResidual)      (None, 32, 32, 128)  164864      DarkRes_3_6[0][0]                
__________________________________________________________________________________________________
DarkRes_3_8 (DarkResidual)      (None, 32, 32, 128)  164864      DarkRes_3_7[0][0]                
__________________________________________________________________________________________________
DarkRes_3_9 (DarkResidual)      (None, 32, 32, 128)  164864      DarkRes_3_8[0][0]                
__________________________________________________________________________________________________
DarkRes_3_10 (DarkResidual)     (None, 32, 32, 128)  164864      DarkRes_3_9[0][0]                
__________________________________________________________________________________________________
DarkRes_3_11 (DarkResidual)     (None, 32, 32, 128)  164864      DarkRes_3_10[0][0]               
__________________________________________________________________________________________________
DarkRes_3_12 (DarkResidual)     (None, 32, 32, 128)  164864      DarkRes_3_11[0][0]               
__________________________________________________________________________________________________
DarkRes_3_13 (DarkResidual)     (None, 32, 32, 128)  164864      DarkRes_3_12[0][0]               
__________________________________________________________________________________________________
DarkRes_3_14 (DarkResidual)     (None, 32, 32, 128)  164864      DarkRes_3_13[0][0]               
__________________________________________________________________________________________________
DarkRes_3_csp_connect (CSPConne (None, 32, 32, 256)  83456       DarkRes_3_14[0][0]               
                                                                 DarkRes_3_csp_down[0][1]         
__________________________________________________________________________________________________
DarkRes_4_csp_down (CSPRoute)   ((None, 16, 16, 256) 1445888     DarkRes_3_csp_connect[0][0]      
__________________________________________________________________________________________________
DarkRes_4_0 (DarkResidual)      (None, 16, 16, 256)  657408      DarkRes_4_csp_down[0][0]         
__________________________________________________________________________________________________
DarkRes_4_1 (DarkResidual)      (None, 16, 16, 256)  657408      DarkRes_4_0[0][0]                
__________________________________________________________________________________________________
DarkRes_4_2 (DarkResidual)      (None, 16, 16, 256)  657408      DarkRes_4_1[0][0]                
__________________________________________________________________________________________________
DarkRes_4_3 (DarkResidual)      (None, 16, 16, 256)  657408      DarkRes_4_2[0][0]                
__________________________________________________________________________________________________
DarkRes_4_4 (DarkResidual)      (None, 16, 16, 256)  657408      DarkRes_4_3[0][0]                
__________________________________________________________________________________________________
DarkRes_4_5 (DarkResidual)      (None, 16, 16, 256)  657408      DarkRes_4_4[0][0]                
__________________________________________________________________________________________________
DarkRes_4_6 (DarkResidual)      (None, 16, 16, 256)  657408      DarkRes_4_5[0][0]                
__________________________________________________________________________________________________
DarkRes_4_7 (DarkResidual)      (None, 16, 16, 256)  657408      DarkRes_4_6[0][0]                
__________________________________________________________________________________________________
DarkRes_4_8 (DarkResidual)      (None, 16, 16, 256)  657408      DarkRes_4_7[0][0]                
__________________________________________________________________________________________________
DarkRes_4_9 (DarkResidual)      (None, 16, 16, 256)  657408      DarkRes_4_8[0][0]                
__________________________________________________________________________________________________
DarkRes_4_10 (DarkResidual)     (None, 16, 16, 256)  657408      DarkRes_4_9[0][0]                
__________________________________________________________________________________________________
DarkRes_4_11 (DarkResidual)     (None, 16, 16, 256)  657408      DarkRes_4_10[0][0]               
__________________________________________________________________________________________________
DarkRes_4_12 (DarkResidual)     (None, 16, 16, 256)  657408      DarkRes_4_11[0][0]               
__________________________________________________________________________________________________
DarkRes_4_13 (DarkResidual)     (None, 16, 16, 256)  657408      DarkRes_4_12[0][0]               
__________________________________________________________________________________________________
DarkRes_4_14 (DarkResidual)     (None, 16, 16, 256)  657408      DarkRes_4_13[0][0]               
__________________________________________________________________________________________________
DarkRes_4_csp_connect (CSPConne (None, 16, 16, 512)  330752      DarkRes_4_14[0][0]               
                                                                 DarkRes_4_csp_down[0][1]         
__________________________________________________________________________________________________
DarkRes_5_csp_down (CSPRoute)   ((None, 8, 8, 512),  5775360     DarkRes_4_csp_connect[0][0]      
__________________________________________________________________________________________________
DarkRes_5_0 (DarkResidual)      (None, 8, 8, 512)    2625536     DarkRes_5_csp_down[0][0]         
__________________________________________________________________________________________________
DarkRes_5_1 (DarkResidual)      (None, 8, 8, 512)    2625536     DarkRes_5_0[0][0]                
__________________________________________________________________________________________________
DarkRes_5_2 (DarkResidual)      (None, 8, 8, 512)    2625536     DarkRes_5_1[0][0]                
__________________________________________________________________________________________________
DarkRes_5_3 (DarkResidual)      (None, 8, 8, 512)    2625536     DarkRes_5_2[0][0]                
__________________________________________________________________________________________________
DarkRes_5_4 (DarkResidual)      (None, 8, 8, 512)    2625536     DarkRes_5_3[0][0]                
__________________________________________________________________________________________________
DarkRes_5_5 (DarkResidual)      (None, 8, 8, 512)    2625536     DarkRes_5_4[0][0]                
__________________________________________________________________________________________________
DarkRes_5_6 (DarkResidual)      (None, 8, 8, 512)    2625536     DarkRes_5_5[0][0]                
__________________________________________________________________________________________________
DarkRes_5_csp_connect (CSPConne (None, 8, 8, 1024)   1316864     DarkRes_5_6[0][0]                
                                                                 DarkRes_5_csp_down[0][1]         
__________________________________________________________________________________________________
DarkRes_6_csp_down (CSPRoute)   ((None, 4, 4, 512),  10493952    DarkRes_5_csp_connect[0][0]      
__________________________________________________________________________________________________
DarkRes_6_0 (DarkResidual)      (None, 4, 4, 512)    2625536     DarkRes_6_csp_down[0][0]         
__________________________________________________________________________________________________
DarkRes_6_1 (DarkResidual)      (None, 4, 4, 512)    2625536     DarkRes_6_0[0][0]                
__________________________________________________________________________________________________
DarkRes_6_2 (DarkResidual)      (None, 4, 4, 512)    2625536     DarkRes_6_1[0][0]                
__________________________________________________________________________________________________
DarkRes_6_3 (DarkResidual)      (None, 4, 4, 512)    2625536     DarkRes_6_2[0][0]                
__________________________________________________________________________________________________
DarkRes_6_4 (DarkResidual)      (None, 4, 4, 512)    2625536     DarkRes_6_3[0][0]                
__________________________________________________________________________________________________
DarkRes_6_5 (DarkResidual)      (None, 4, 4, 512)    2625536     DarkRes_6_4[0][0]                
__________________________________________________________________________________________________I0426 22:41:49.776402 140676407715648 dataset_info.py:361] Load dataset info from gs://tensorflow2/tensorflow_datasets/imagenet2012/5.1.0
I0426 22:41:51.387175 140676407715648 dataset_builder.py:299] Reusing dataset imagenet2012 (gs://tensorflow2/tensorflow_datasets/imagenet2012/5.1.0)
…
