…
worker_hosts': None, 'task_index': -1, 'all_reduce_alg': None, 'num_packs': 1, 'mixed_precision_dtype': 'bfloat16', 'loss_scale': None, 'run_eagerly': False, 'batchnorm_spatial_persistent': False, 'num_cores_per_replica': 1, 'default_shard_dim': -1}}
Model: "csp-large"
__________________________________________________________________________________________________
Layer (type)                    Output Shape         Param #     Connected to                     
==================================================================================================
input_1 (InputLayer)            [(None, 320, 320, 3) 0                                            
__________________________________________________________________________________________________
ConvBN_0_0 (ConvBN)             (None, 320, 320, 32) 992         input_1[0][0]                    
__________________________________________________________________________________________________
DarkRes_1_csp_down (CSPRoute)   ((None, 160, 160, 64 27392       ConvBN_0_0[0][0]                 
__________________________________________________________________________________________________
DarkRes_1_0 (DarkResidual)      (None, 160, 160, 64) 20864       DarkRes_1_csp_down[0][0]         
__________________________________________________________________________________________________
DarkRes_1_csp_connect (CSPConne (None, 160, 160, 64) 12800       DarkRes_1_0[0][0]                
                                                                 DarkRes_1_csp_down[0][1]         
__________________________________________________________________________________________________
DarkRes_2_csp_down (CSPRoute)   ((None, 80, 80, 64), 91136       DarkRes_1_csp_connect[0][0]      
__________________________________________________________________________________________________
DarkRes_2_0 (DarkResidual)      (None, 80, 80, 64)   41472       DarkRes_2_csp_down[0][0]         
__________________________________________________________________________________________________
DarkRes_2_1 (DarkResidual)      (None, 80, 80, 64)   41472       DarkRes_2_0[0][0]                
__________________________________________________________________________________________________
DarkRes_2_2 (DarkResidual)      (None, 80, 80, 64)   41472       DarkRes_2_1[0][0]                
__________________________________________________________________________________________________
DarkRes_2_csp_connect (CSPConne (None, 80, 80, 128)  21248       DarkRes_2_2[0][0]                
                                                                 DarkRes_2_csp_down[0][1]         
__________________________________________________________________________________________________
DarkRes_3_csp_down (CSPRoute)   ((None, 40, 40, 128) 362496      DarkRes_2_csp_connect[0][0]      
__________________________________________________________________________________________________
DarkRes_3_0 (DarkResidual)      (None, 40, 40, 128)  164864      DarkRes_3_csp_down[0][0]         
__________________________________________________________________________________________________
DarkRes_3_1 (DarkResidual)      (None, 40, 40, 128)  164864      DarkRes_3_0[0][0]                
__________________________________________________________________________________________________
DarkRes_3_2 (DarkResidual)      (None, 40, 40, 128)  164864      DarkRes_3_1[0][0]                
__________________________________________________________________________________________________
DarkRes_3_3 (DarkResidual)      (None, 40, 40, 128)  164864      DarkRes_3_2[0][0]                
__________________________________________________________________________________________________
DarkRes_3_4 (DarkResidual)      (None, 40, 40, 128)  164864      DarkRes_3_3[0][0]                
__________________________________________________________________________________________________
DarkRes_3_5 (DarkResidual)      (None, 40, 40, 128)  164864      DarkRes_3_4[0][0]                
__________________________________________________________________________________________________
DarkRes_3_6 (DarkResidual)      (None, 40, 40, 128)  164864      DarkRes_3_5[0][0]                
__________________________________________________________________________________________________
DarkRes_3_7 (DarkResidual)      (None, 40, 40, 128)  164864      DarkRes_3_6[0][0]                
__________________________________________________________________________________________________
DarkRes_3_8 (DarkResidual)      (None, 40, 40, 128)  164864      DarkRes_3_7[0][0]                
__________________________________________________________________________________________________
DarkRes_3_9 (DarkResidual)      (None, 40, 40, 128)  164864      DarkRes_3_8[0][0]                
__________________________________________________________________________________________________
DarkRes_3_10 (DarkResidual)     (None, 40, 40, 128)  164864      DarkRes_3_9[0][0]                
__________________________________________________________________________________________________
DarkRes_3_11 (DarkResidual)     (None, 40, 40, 128)  164864      DarkRes_3_10[0][0]               
__________________________________________________________________________________________________
DarkRes_3_12 (DarkResidual)     (None, 40, 40, 128)  164864      DarkRes_3_11[0][0]               
__________________________________________________________________________________________________
DarkRes_3_13 (DarkResidual)     (None, 40, 40, 128)  164864      DarkRes_3_12[0][0]               
__________________________________________________________________________________________________
DarkRes_3_14 (DarkResidual)     (None, 40, 40, 128)  164864      DarkRes_3_13[0][0]               
__________________________________________________________________________________________________
DarkRes_3_csp_connect (CSPConne (None, 40, 40, 256)  83456       DarkRes_3_14[0][0]               
                                                                 DarkRes_3_csp_down[0][1]         
__________________________________________________________________________________________________
DarkRes_4_csp_down (CSPRoute)   ((None, 20, 20, 256) 1445888     DarkRes_3_csp_connect[0][0]      
__________________________________________________________________________________________________
DarkRes_4_0 (DarkResidual)      (None, 20, 20, 256)  657408      DarkRes_4_csp_down[0][0]         
__________________________________________________________________________________________________
DarkRes_4_1 (DarkResidual)      (None, 20, 20, 256)  657408      DarkRes_4_0[0][0]                
__________________________________________________________________________________________________
DarkRes_4_2 (DarkResidual)      (None, 20, 20, 256)  657408      DarkRes_4_1[0][0]                
__________________________________________________________________________________________________
DarkRes_4_3 (DarkResidual)      (None, 20, 20, 256)  657408      DarkRes_4_2[0][0]                
__________________________________________________________________________________________________
DarkRes_4_4 (DarkResidual)      (None, 20, 20, 256)  657408      DarkRes_4_3[0][0]                
__________________________________________________________________________________________________
DarkRes_4_5 (DarkResidual)      (None, 20, 20, 256)  657408      DarkRes_4_4[0][0]                
__________________________________________________________________________________________________
DarkRes_4_6 (DarkResidual)      (None, 20, 20, 256)  657408      DarkRes_4_5[0][0]                
__________________________________________________________________________________________________
DarkRes_4_7 (DarkResidual)      (None, 20, 20, 256)  657408      DarkRes_4_6[0][0]                
__________________________________________________________________________________________________
DarkRes_4_8 (DarkResidual)      (None, 20, 20, 256)  657408      DarkRes_4_7[0][0]                
__________________________________________________________________________________________________
DarkRes_4_9 (DarkResidual)      (None, 20, 20, 256)  657408      DarkRes_4_8[0][0]                
__________________________________________________________________________________________________
DarkRes_4_10 (DarkResidual)     (None, 20, 20, 256)  657408      DarkRes_4_9[0][0]                
__________________________________________________________________________________________________
DarkRes_4_11 (DarkResidual)     (None, 20, 20, 256)  657408      DarkRes_4_10[0][0]               
__________________________________________________________________________________________________
DarkRes_4_12 (DarkResidual)     (None, 20, 20, 256)  657408      DarkRes_4_11[0][0]               
__________________________________________________________________________________________________
DarkRes_4_13 (DarkResidual)     (None, 20, 20, 256)  657408      DarkRes_4_12[0][0]               
__________________________________________________________________________________________________
DarkRes_4_14 (DarkResidual)     (None, 20, 20, 256)  657408      DarkRes_4_13[0][0]               
__________________________________________________________________________________________________
DarkRes_4_csp_connect (CSPConne (None, 20, 20, 512)  330752      DarkRes_4_14[0][0]               
                                                                 DarkRes_4_csp_down[0][1]         
__________________________________________________________________________________________________
DarkRes_5_csp_down (CSPRoute)   ((None, 10, 10, 512) 5775360     DarkRes_4_csp_connect[0][0]      
__________________________________________________________________________________________________
DarkRes_5_0 (DarkResidual)      (None, 10, 10, 512)  2625536     DarkRes_5_csp_down[0][0]         
__________________________________________________________________________________________________
DarkRes_5_1 (DarkResidual)      (None, 10, 10, 512)  2625536     DarkRes_5_0[0][0]                
__________________________________________________________________________________________________
DarkRes_5_2 (DarkResidual)      (None, 10, 10, 512)  2625536     DarkRes_5_1[0][0]                
__________________________________________________________________________________________________
DarkRes_5_3 (DarkResidual)      (None, 10, 10, 512)  2625536     DarkRes_5_2[0][0]                
__________________________________________________________________________________________________
DarkRes_5_4 (DarkResidual)      (None, 10, 10, 512)  2625536     DarkRes_5_3[0][0]                
__________________________________________________________________________________________________
DarkRes_5_5 (DarkResidual)      (None, 10, 10, 512)  2625536     DarkRes_5_4[0][0]                
__________________________________________________________________________________________________
DarkRes_5_6 (DarkResidual)      (None, 10, 10, 512)  2625536     DarkRes_5_5[0][0]                
__________________________________________________________________________________________________
DarkRes_5_csp_connect (CSPConne (None, 10, 10, 1024) 1316864     DarkRes_5_6[0][0]                
                                                                 DarkRes_5_csp_down[0][1]         
__________________________________________________________________________________________________
DarkRes_6_csp_down (CSPRoute)   ((None, 5, 5, 512),  10493952    DarkRes_5_csp_connect[0][0]      
__________________________________________________________________________________________________
DarkRes_6_0 (DarkResidual)      (None, 5, 5, 512)    2625536     DarkRes_6_csp_down[0][0]         
__________________________________________________________________________________________________
DarkRes_6_1 (DarkResidual)      (None, 5, 5, 512)    2625536     DarkRes_6_0[0][0]                
__________________________________________________________________________________________________
DarkRes_6_2 (DarkResidual)      (None, 5, 5, 512)    2625536     DarkRes_6_1[0][0]                
__________________________________________________________________________________________________
DarkRes_6_3 (DarkResidual)      (None, 5, 5, 512)    2625536     DarkRes_6_2[0][0]                
__________________________________________________________________________________________________
DarkRes_6_4 (DarkResidual)      (None, 5, 5, 512)    2625536     DarkRes_6_3[0][0]                
__________________________________________________________________________________________________
DarkRes_6_5 (DarkResidual)      (None, 5, 5, 512)    2625536     DarkRes_6_4[0][0]                
__________________________________________________________________________________________________I0430 20:07:18.854933 139785967261504 dataset_info.py:361] Load dataset info from gs://tensorflow2/tensorflow_datasets/imagenet2012/5.1.0
I0430 20:07:20.538730 139785967261504 dataset_builder.py:299] Reusing dataset imagenet2012 (gs://tensorflow2/tensorflow_datasets/imagenet2012/5.1.0)
…
I0430 23:22:23.005749 139785967261504 controller.py:211] train | step:  25000 | training until step 27500...
I0430 23:39:18.247946 139785967261504 controller.py:425] train | step:  27500 | steps/sec:    2.3 | output: 
    {'accuracy': 0.11407109,
     'learning_rate': 0.27211237,
     'top_5_accuracy': 0.28567812,
     'training_loss': 6.085382}
I0430 23:39:58.486360 139785967261504 controller.py:455] saved checkpoint to gs://tensorflow2/darknet/tpu/darknet53-p7-tpu/ckpt-27500.
I0430 23:39:58.493185 139785967261504 controller.py:252]  eval | step:  27500 | running 97 steps of evaluation...

DarkRes_6_6 (DarkResidual)      (None, 5, 5, 512)    2625536     DarkRes_6_5[0][0]                
__________________________________________________________________________________________________
DarkRes_6_csp_connect (CSPConne (None, 5, 5, 1024)   1316864     DarkRes_6_6[0][0]                
                                                                 DarkRes_6_csp_down[0][1]         
__________________________________________________________________________________________________
DarkRes_7_csp_down (CSPRoute)   ((None, 3, 3, 512),  10493952    DarkRes_6_csp_connect[0][0]      
__________________________________________________________________________________________________
DarkRes_7_0 (DarkResidual)      (None, 3, 3, 512)    2625536     DarkRes_7_csp_down[0][0]         
__________________________________________________________________________________________________
DarkRes_7_1 (DarkResidual)      (None, 3, 3, 512)    2625536     DarkRes_7_0[0][0]                
__________________________________________________________________________________________________
DarkRes_7_2 (DarkResidual)      (None, 3, 3, 512)    2625536     DarkRes_7_1[0][0]                
__________________________________________________________________________________________________
DarkRes_7_3 (DarkResidual)      (None, 3, 3, 512)    2625536     DarkRes_7_2[0][0]                
__________________________________________________________________________________________________
DarkRes_7_4 (DarkResidual)      (None, 3, 3, 512)    2625536     DarkRes_7_3[0][0]                
__________________________________________________________________________________________________
DarkRes_7_5 (DarkResidual)      (None, 3, 3, 512)    2625536     DarkRes_7_4[0][0]                
__________________________________________________________________________________________________
DarkRes_7_6 (DarkResidual)      (None, 3, 3, 512)    2625536     DarkRes_7_5[0][0]                
__________________________________________________________________________________________________
DarkRes_7_csp_connect (CSPConne (None, 3, 3, 1024)   1316864     DarkRes_7_6[0][0]                
                                                                 DarkRes_7_csp_down[0][1]         
==================================================================================================
Total params: 100,705,632
Trainable params: 100,610,144
Non-trainable params: 95,488
__________________________________________________________________________________________________
…
