…
ker_hosts': None, 'task_index': -1, 'all_reduce_alg': None, 'num_packs': 1, 'mixed_precision_dtype': 'bfloat16', 'loss_scale': None, 'run_eagerly': False, 'batchnorm_spatial_persistent': False, 'num_cores_per_replica': 1, 'default_shard_dim': -1}}
Model: "cspdarknet53"
__________________________________________________________________________________________________
Layer (type)                    Output Shape         Param #     Connected to                     
==================================================================================================
input_1 (InputLayer)            [(None, 256, 256, 3) 0                                            
__________________________________________________________________________________________________
ConvBN_0_0 (ConvBN)             (None, 256, 256, 32) 992         input_1[0][0]                    
__________________________________________________________________________________________________
DarkRes_1_csp_down (CSPRoute)   ((None, 128, 128, 64 27392       ConvBN_0_0[0][0]                 
__________________________________________________________________________________________________
DarkRes_1_0 (DarkResidual)      (None, 128, 128, 64) 20864       DarkRes_1_csp_down[0][0]         
__________________________________________________________________________________________________
DarkRes_1_csp_connect (CSPConne (None, 128, 128, 64) 12800       DarkRes_1_0[0][0]                
                                                                 DarkRes_1_csp_down[0][1]         
__________________________________________________________________________________________________
DarkRes_2_csp_down (CSPRoute)   ((None, 64, 64, 64), 91136       DarkRes_1_csp_connect[0][0]      
__________________________________________________________________________________________________
DarkRes_2_0 (DarkResidual)      (None, 64, 64, 64)   41472       DarkRes_2_csp_down[0][0]         
__________________________________________________________________________________________________
DarkRes_2_1 (DarkResidual)      (None, 64, 64, 64)   41472       DarkRes_2_0[0][0]                
__________________________________________________________________________________________________
DarkRes_2_csp_connect (CSPConne (None, 64, 64, 128)  21248       DarkRes_2_1[0][0]                
                                                                 DarkRes_2_csp_down[0][1]         
__________________________________________________________________________________________________
DarkRes_3_csp_down (CSPRoute)   ((None, 32, 32, 128) 362496      DarkRes_2_csp_connect[0][0]      
__________________________________________________________________________________________________
DarkRes_3_0 (DarkResidual)      (None, 32, 32, 128)  164864      DarkRes_3_csp_down[0][0]         
__________________________________________________________________________________________________
DarkRes_3_1 (DarkResidual)      (None, 32, 32, 128)  164864      DarkRes_3_0[0][0]                
__________________________________________________________________________________________________
DarkRes_3_2 (DarkResidual)      (None, 32, 32, 128)  164864      DarkRes_3_1[0][0]                
__________________________________________________________________________________________________
DarkRes_3_3 (DarkResidual)      (None, 32, 32, 128)  164864      DarkRes_3_2[0][0]                
__________________________________________________________________________________________________
DarkRes_3_4 (DarkResidual)      (None, 32, 32, 128)  164864      DarkRes_3_3[0][0]                
__________________________________________________________________________________________________
DarkRes_3_5 (DarkResidual)      (None, 32, 32, 128)  164864      DarkRes_3_4[0][0]                
__________________________________________________________________________________________________
DarkRes_3_6 (DarkResidual)      (None, 32, 32, 128)  164864      DarkRes_3_5[0][0]                
__________________________________________________________________________________________________
DarkRes_3_7 (DarkResidual)      (None, 32, 32, 128)  164864      DarkRes_3_6[0][0]                
__________________________________________________________________________________________________
DarkRes_3_csp_connect (CSPConne (None, 32, 32, 256)  83456       DarkRes_3_7[0][0]                
                                                                 DarkRes_3_csp_down[0][1]         
__________________________________________________________________________________________________
DarkRes_4_csp_down (CSPRoute)   ((None, 32, 32, 256) 1445888     DarkRes_3_csp_connect[0][0]      I0426 22:45:06.510025 140329092597568 dataset_info.py:361] Load dataset info from gs://tensorflow2/tensorflow_datasets/imagenet2012/5.1.0
I0426 22:45:08.178963 140329092597568 dataset_builder.py:299] Reusing dataset imagenet2012 (gs://tensorflow2/tensorflow_datasets/imagenet2012/5.1.0)
I0426 22:45:08.179253 140329092597568 dataset_builder.py:511] Constructing tf.data.Dataset for split train, from gs://tensorflow2/tensorflow_datasets/imagenet2012/5.1.0
…
  (4) Invalid argument: {{function_node __inference_eval_step_91676}} Compilation failure: Reshape's input dynamic dimension is decomposed into multiple output dynamic dimensions, but the constraint is ambiguous and XLA can't infer the output dimension %reshape.2853 = bf16[2,2,64,16,16,256]{5,4,3,2,1,0} reshape(bf16[<=256,16,16,256]{3,2,1,0} %convolution.2852), metadata={op_type="BatchToSpaceND" op_name="classification_model/cspdarknet53/DarkRes_4_0/conv_bn_1/conv2d_1/Conv2D/Bat ... [truncated]

__________________________________________________________________________________________________
DarkRes_4_0 (DarkResidual)      (None, 32, 32, 256)  657408      DarkRes_4_csp_down[0][0]         
__________________________________________________________________________________________________
DarkRes_4_1 (DarkResidual)      (None, 32, 32, 256)  657408      DarkRes_4_0[0][0]                
__________________________________________________________________________________________________
DarkRes_4_2 (DarkResidual)      (None, 32, 32, 256)  657408      DarkRes_4_1[0][0]                
__________________________________________________________________________________________________
DarkRes_4_3 (DarkResidual)      (None, 32, 32, 256)  657408      DarkRes_4_2[0][0]                
__________________________________________________________________________________________________
DarkRes_4_4 (DarkResidual)      (None, 32, 32, 256)  657408      DarkRes_4_3[0][0]                
__________________________________________________________________________________________________
DarkRes_4_5 (DarkResidual)      (None, 32, 32, 256)  657408      DarkRes_4_4[0][0]                
__________________________________________________________________________________________________
DarkRes_4_6 (DarkResidual)      (None, 32, 32, 256)  657408      DarkRes_4_5[0][0]                
__________________________________________________________________________________________________
DarkRes_4_7_degrided_1 (DarkRes (None, 32, 32, 256)  657408      DarkRes_4_6[0][0]                
__________________________________________________________________________________________________
DarkRes_4_csp_connect (CSPConne (None, 32, 32, 512)  330752      DarkRes_4_7_degrided_1[0][0]     
                                                                 DarkRes_4_csp_down[0][1]         
__________________________________________________________________________________________________
DarkRes_5_csp_down (CSPRoute)   ((None, 32, 32, 512) 5775360     DarkRes_4_csp_connect[0][0]      
__________________________________________________________________________________________________
DarkRes_5_0 (DarkResidual)      (None, 32, 32, 512)  2625536     DarkRes_5_csp_down[0][0]         
__________________________________________________________________________________________________
DarkRes_5_1 (DarkResidual)      (None, 32, 32, 512)  2625536     DarkRes_5_0[0][0]                
__________________________________________________________________________________________________
DarkRes_5_2_degrided_2 (DarkRes (None, 32, 32, 512)  2625536     DarkRes_5_1[0][0]                
__________________________________________________________________________________________________
DarkRes_5_3_degrided_1 (DarkRes (None, 32, 32, 512)  2625536     DarkRes_5_2_degrided_2[0][0]     
__________________________________________________________________________________________________
DarkRes_5_csp_connect (CSPConne (None, 32, 32, 1024) 1316864     DarkRes_5_3_degrided_1[0][0]     
                                                                 DarkRes_5_csp_down[0][1]         
==================================================================================================
Total params: 26,652,512
Trainable params: 26,617,184
Non-trainable params: 35,328
__________________________________________________________________________________________________
…
