…
'[19.0, 36.0]', '[40.0, 28.0]', '[36.0, 75.0]', '[76.0, 55.0]', '[72.0, 146.0]', '[142.0, 110.0]', '[192.0, 243.0]', '[459.0, 401.0]']}
InputSpec(shape=(None, 608, 608, 3), ndim=4)
<tensorflow.python.keras.regularizers.L2 object at 0x7f8c2031d550>
Model: "cspdarknet53"
__________________________________________________________________________________________________
Layer (type)                    Output Shape         Param #     Connected to                     
==================================================================================================
input_1 (InputLayer)            [(None, 608, 608, 3) 0                                            
__________________________________________________________________________________________________
ConvBN_0_0 (ConvBN)             (None, 608, 608, 32) 992         input_1[0][0]                    
__________________________________________________________________________________________________
DarkRes_1_csp_down (CSPRoute)   ((None, 304, 304, 64 27392       ConvBN_0_0[0][0]                 
__________________________________________________________________________________________________
DarkRes_1_0 (DarkResidual)      (None, 304, 304, 64) 20864       DarkRes_1_csp_down[0][0]         
__________________________________________________________________________________________________
DarkRes_1_csp_connect (CSPConne (None, 304, 304, 64) 12800       DarkRes_1_0[0][0]                
                                                                 DarkRes_1_csp_down[0][1]         
__________________________________________________________________________________________________
DarkRes_2_csp_down (CSPRoute)   ((None, 152, 152, 64 91136       DarkRes_1_csp_connect[0][0]      
__________________________________________________________________________________________________
DarkRes_2_0 (DarkResidual)      (None, 152, 152, 64) 41472       DarkRes_2_csp_down[0][0]         
__________________________________________________________________________________________________
DarkRes_2_1 (DarkResidual)      (None, 152, 152, 64) 41472       DarkRes_2_0[0][0]                
__________________________________________________________________________________________________
DarkRes_2_csp_connect (CSPConne (None, 152, 152, 128 21248       DarkRes_2_1[0][0]                
                                                                 DarkRes_2_csp_down[0][1]         
__________________________________________________________________________________________________
DarkRes_3_csp_down (CSPRoute)   ((None, 76, 76, 128) 362496      DarkRes_2_csp_connect[0][0]      
__________________________________________________________________________________________________
DarkRes_3_0 (DarkResidual)      (None, 76, 76, 128)  164864      DarkRes_3_csp_down[0][0]         
__________________________________________________________________________________________________
DarkRes_3_1 (DarkResidual)      (None, 76, 76, 128)  164864      DarkRes_3_0[0][0]                
__________________________________________________________________________________________________
DarkRes_3_2 (DarkResidual)      (None, 76, 76, 128)  164864      DarkRes_3_1[0][0]                
__________________________________________________________________________________________________
DarkRes_3_3 (DarkResidual)      (None, 76, 76, 128)  164864      DarkRes_3_2[0][0]                
__________________________________________________________________________________________________
DarkRes_3_4 (DarkResidual)      (None, 76, 76, 128)  164864      DarkRes_3_3[0][0]                
__________________________________________________________________________________________________
DarkRes_3_5 (DarkResidual)      (None, 76, 76, 128)  164864      DarkRes_3_4[0][0]                
__________________________________________________________________________________________________
DarkRes_3_6 (DarkResidual)      (None, 76, 76, 128)  164864      DarkRes_3_5[0][0]                
__________________________________________________________________________________________________
DarkRes_3_7 (DarkResidual)      (None, 76, 76, 128)  164864      DarkRes_3_6[0][0]                
__________________________________________________________________________________________________
DarkRes_3_csp_connect (CSPConne (None, 76, 76, 256)  83456       DarkRes_3_7[0][0]                
                                                                 DarkRes_3_csp_down[0][1]         
__________________________________________________________________________________________________
DarkRes_4_csp_down (CSPRoute)   ((None, 38, 38, 256) 1445888     DarkRes_3_csp_connect[0][0]      
__________________________________________________________________________________________________
DarkRes_4_0 (DarkResidual)      (None, 38, 38, 256)  657408      DarkRes_4_csp_down[0][0]         
__________________________________________________________________________________________________
DarkRes_4_1 (DarkResidual)      (None, 38, 38, 256)  657408      DarkRes_4_0[0][0]                
__________________________________________________________________________________________________
DarkRes_4_2 (DarkResidual)      (None, 38, 38, 256)  657408      DarkRes_4_1[0][0]                
__________________________________________________________________________________________________
DarkRes_4_3 (DarkResidual)      (None, 38, 38, 256)  657408      DarkRes_4_2[0][0]                
__________________________________________________________________________________________________
DarkRes_4_4 (DarkResidual)      (None, 38, 38, 256)  657408      DarkRes_4_3[0][0]                
__________________________________________________________________________________________________
DarkRes_4_5 (DarkResidual)      (None, 38, 38, 256)  657408      DarkRes_4_4[0][0]                
__________________________________________________________________________________________________
DarkRes_4_6 (DarkResidual)      (None, 38, 38, 256)  657408      DarkRes_4_5[0][0]                
__________________________________________________________________________________________________
DarkRes_4_7 (DarkResidual)      (None, 38, 38, 256)  657408      DarkRes_4_6[0][0]                
__________________________________________________________________________________________________
DarkRes_4_csp_connect (CSPConne (None, 38, 38, 512)  330752      DarkRes_4_7[0][0]                
                                                                 DarkRes_4_csp_down[0][1]         
__________________________________________________________________________________________________
DarkRes_5_csp_down (CSPRoute)   ((None, 19, 19, 512) 5775360     DarkRes_4_csp_connect[0][0]      
__________________________________________________________________________________________________
DarkRes_5_0 (DarkResidual)      (None, 19, 19, 512)  2625536     DarkRes_5_csp_down[0][0]         
__________________________________________________________________________________________________
DarkRes_5_1 (DarkResidual)      (None, 19, 19, 512)  2625536     DarkRes_5_0[0][0]                
__________________________________________________________________________________________________
DarkRes_5_2 (DarkResidual)      (None, 19, 19, 512)  2625536     DarkRes_5_1[0][0]                
__________________________________________________________________________________________________
DarkRes_5_3 (DarkResidual)      (None, 19, 19, 512)  2625536     DarkRes_5_2[0][0]                
__________________________________________________________________________________________________
DarkRes_5_csp_connect (CSPConne (None, 19, 19, 1024) 1316864     DarkRes_5_3[0][0]                
                                                                 DarkRes_5_csp_down[0][1]         
==================================================================================================
Total params: 26,652,512
Trainable params: 26,617,184
Non-trainable params: 35,328
__________________________________________________________________________________________________
Model: "YoloDecoder"
__________________________________________________________________________________________________
Layer (type)                    Output Shape         Param #     Connected to                     
==================================================================================================
input_2 (InputLayer)            [(None, 76, 76, 256) 0                                            
__________________________________________________________________________________________________
input_3 (InputLayer)            [(None, 38, 38, 512) 0                                            
__________________________________________________________________________________________________
input_4 (InputLayer)            [(None, 19, 19, 1024 0                                            
__________________________________________________________________________________________________
yolo_fpn (YoloFPN)              {'5': (None, 19, 19, 15165440    input_2[0][0]                    
…
